…
      sampler {
        min_scale: 0.3
        max_scale: 1
        min_aspect_ratio: 0.5
        max_aspect_ratio: 2
      }
      sample_constraint {
        min_jaccard_overlap: 0.9
      }
      max_sample: 1
      max_trials: 50
    }
    batch_sampler {
      sampler {
        min_scale: 0.3
        max_scale: 1
        min_aspect_ratio: 0.5
        max_aspect_ratio: 2
      }
      sample_constraint {
        max_jaccard_overlap: 1
      }
      max_sample: 1
      max_trials: 50
    }
    label_map_file: "data/VOC0712/labelmap_voc.prototxt"
  }
}
layer {
  name: "conv1_1"
  type: "Convolution"
  bottom: "data"
  top: "conv1_1"
  param {
    lr_mult: 1
    decay_mult: 1
  }
  param {
    lr_mult: 2
    decay_mult: 0
  }
  convolution_param {
    num_output: 64
    pad: 1
    kernel_size: 3
    weight_filler {
      type: "xavier"
    }
    bias_filler {
      type: "constant"
      value: 0
    }
  }
}
layer {
  name: "relu1_1"
  type: "ReLU"
  bottom: "conv1_1"
  top: "conv1_1"
}
layer {
  name: "conv1_2"
  type: "Convolution"
  bottom: "conv1_1"
  top: "conv1_2"
  param {
    lr_mult: 1
    decay_mult: 1
  }
  param {
    lr_mult: 2
    decay_mult: 0
  }
  convolution_param {
    num_output: 64
    pad: 1
    kernel_size: 3
    weight_filler {
      type: "xavier"
    }
    bias_filler {
      type: "constant"
      value: 0
    }
  }
}
layer {
  name: "relu1_2"
  type: "ReLU"
  bottom: "conv1_2"
  top: "conv1_2"
}
layer {
  name: "pool1"
  type: "Pooling"
  bottom: "conv1_2"
  top: "pool1"
  pooling_param {
    pool: MAX
    kernel_size: 2
    stride: 2
  }
}
layer {
  name: "conv2_1"
  type: "Convolution"
  bottom: "pool1"
  top: "conv2_1"
  param {
    lr_mult: 1
    decay_mult: 1
  }
  param {
    lr_mult: 2
    decay_mult: 0
  }
  convolution_param {
    num_output: 128
    pad: 1
    kernel_size: 3
    weight_filler {
      type: "xavier"
    }
    bias_filler {
      type: "constant"
      value: 0
    }
  }
}
layer {
  name: "relu2_1"
  type: "ReLU"
  bottom: "conv2_1"
  top: "conv2_1"
}
layer {
  name: "conv2_2"
  type: "Convolution"
  bottom: "conv2_1"
  top: "conv2_2"
  param {
    lr_mult: 1
    decay_mult: 1
  }
  param {
    lr_mult: 2
    decay_mult: 0
  }
  convolution_param {
    num_output: 128
    pad: 1
    kernel_size: 3
    weight_filler {
      type: "xavier"
    }
    bias_filler {
      type: "constant"
      value: 0
    }
  }
}
layer {
  name: "relu2_2"
  type: "ReLU"
  bottom: "conv2_2"
  top: "conv2_2"
}
layer {
  name: "pool2"
  type: "Pooling"
  bottom: "conv2_2"
  top: "pool2"
  pooling_param {
    pool: MAX
    kernel_size: 2
    stride: 2
  }
}
layer {
  name: "conv3_1"
  type: "Convolution"
  bottom: "pool2"
  top: "conv3_1"
  param {
    lr_mult: 1
    decay_mult: 1
  }
  param {
    lr_mult: 2
    decay_mult: 0
  }
  convolution_param {
    num_output: 256
    pad: 1
    kernel_size: 3
    weight_filler {
      type: "xavier"
    }
    bias_filler {
      type: "constant"
      value: 0
    }
  }
}
layer {
  name: "relu3_1"
  type: "ReLU"
  bottom: "conv3_1"
  top: "conv3_1"
}
layer {
  name: "conv3_2"
  type: "Convolution"
  bottom: "conv3_1"
  top: "conv3_2"
  param {
    lr_mult: 1
    decay_mult: 1
  }
  param {
    lr_mult: 2
    decay_mult: 0
  }
  convolution_param {
    num_output: 256
    pad: 1
    kernel_size: 3
    weight_filler {
      type: "xavier"
    }
    bias_filler {
      type: "constant"
      value: 0
    }
  }
}
layer {
  name: "relu3_2"
  type: "ReLU"
  bottom: "conv3_2"
  top: "conv3_2"
}
layer {
  name: "conv3_3"
  type: "Convolution"
  bottom: "conv3_2"
  top: "conv3_3"
  param {
    lr_mult: 1
    decay_mult: 1
  }
  param {
    lr_mult: 2
    decay_mult: 0
  }
  convolution_param {
    num_output: 256
    pad: 1
    kernel_size: 3
    weight_filler {
      type: "xavier"
    }
    bias_filler {
      type: "constant"
      value: 0
    }
  }
}
layer {
  name: "relu3_3"
  type: "ReLU"
  bottom: "conv3_3"
  top: "conv3_3"
}
layer {
  name: "pool3"
  type: "Pooling"
  bottom: "conv3_3"
  top: "pool3"
  pooling_param {
    pool: MAX
    kernel_size: 2
    stride: 2
  }
}
layer {
  name: "conv4_1"
  type: "Convolution"
  bottom: "pool3"
  top: "conv4_1"
  param {
    lr_mult: 1
    decay_mult: 1
  }
  param {
    lr_mult: 2
    decay_mult: 0
  }
  convolution_param {
    num_output: 512
    pad: 1
    kernel_size: 3
    weight_filler {
      type: "xavier"
    }
    bias_filler {
      type: "constant"
      value: 0
    }
  }
}
layer {
  name: "relu4_1"
  type: "ReLU"
  bottom: "conv4_1"
  top: "conv4_1"
}
layer {
  name: "conv4_2"
  type: "Convolution"
  bottom: "conv4_1"
  top: "conv4_2"
  param {
    lr_mult: 1
    decay_mult: 1
  }
  param {
    lr_mult: 2
    decay_mult: 0
  }
  convolution_param {
    num_output: 512
    pad: 1
    kernel_size: 3
    weight_filler {
      type: "xavier"
    }
    bias_filler {
      type: "constant"
      value: 0
    }
  }
}
layer {
  name: "relu4_2"
  type: "ReLU"
  bottom: "conv4_2"
  top: "conv4_2"
}
layer {
  name: "conv4_3"
  type: "Convolution"
  bottom: "conv4_2"
  top: "conv4_3"
  param {
    lr_mult: 1
    decay_mult: 1
  }
  param {
    lr_mult: 2
    decay_mult: 0
  }
  convolution_param {
    num_output: 512
    pad: 1
    kernel_size: 3
    weight_filler {
      type: "xavier"
    }
    bias_filler {
      type: "constant"
      value: 0
    }
  }
}
layer {
  name: "relu4_3"
  type: "ReLU"
  bottom: "conv4_3"
  top: "conv4_3"
}
layer {
  name: "pool4"
  type: "Pooling"
  bottom: "conv4_3"
  top: "pool4"
  pooling_param {
    pool: MAX
    kernel_size: 2
    stride: 2
  }
}
layer {
  name: "conv5_1"
  type: "Convolution"
  bottom: "pool4"
  top: "conv5_1"
  param {
    lr_mult: 1
    decay_mult: 1
  }
  param {
    lr_mult: 2
    decay_mult: 0
  }
  convolution_param {
    num_output: 512
    pad: 1
    kernel_size: 3
    weight_filler {
      type: "xavier"
    }
    bias_filler {
      type: "constant"
      value: 0
    }
    dilation: 1
  }
}
layer {
  name: "relu5_1"
  type: "ReLU"
  bottom: "conv5_1"
  top: "conv5_1"
}
layer {
  name: "conv5_2"
  type: "Convolution"
  bottom: "conv5_1"
  top: "conv5_2"
  param {
    lr_mult: 1
    decay_mult: 1
  }
  param {
    lr_mult: 2
    decay_mult: 0
  }
  convolution_param {
    num_output: 512
    pad: 1
    kernel_size: 3
    weight_filler {
      type: "xavier"
    }
    bias_filler {
      type: "constant"
      value: 0
    }
    dilation: 1
  }
}
layer {
  name: "relu5_2"
  type: "ReLU"
  bottom: "conv5_2"
  top: "conv5_2"
}
layer {
  name: "conv5_3"
  type: "Convolution"
  bottom: "conv5_2"
  top: "conv5_3"
  param {
    lr_mult: 1
    decay_mult: 1
  }
  param {
    lr_mult: 2
    decay_mult: 0
  }
  convolution_param {
    num_output: 512
    pad: 1
    kernel_size: 3
    weight_filler {
      type: "xavier"
    }
    bias_filler {
      type: "constant"
      value: 0
    }
    dilation: 1
  }
}
layer {
  name: "relu5_3"
  type: "ReLU"
  bottom: "conv5_3"
  top: "conv5_3"
}
layer {
  name: "pool5"
  type: "Pooling"
  bottom: "conv5_3"
  top: "pool5"
  pooling_param {
    pool: MAX
    kernel_size: 3
    stride: 1
    pad: 1
  }
}
layer {
  name: "fc6"
  type: "Convolution"
  bottom: "pool5"
  top: "fc6"
  param {
    lr_mult: 1
    decay_mult: 1
  }
  param {
    lr_mult: 2
    decay_mult: 0
  }
  convolution_param {
    num_output: 1024
    pad: 6
    kernel_size: 3
    weight_filler {
      type: "xavier"
    }
    bias_filler {
      type: "constant"
      value: 0
    }
    dilation: 6
  }
}
layer {
  name: "relu6"
  type: "ReLU"
  bottom: "fc6"
  top: "fc6"
}
layer {
  name: "fc7"
  type: "Convolution"
  bottom: "fc6"
  top: "fc7"
  param {
    lr_mult: 1
    decay_mult: 1
  }
  param {
    lr_mult: 2
    decay_mult: 0
  }
  convolution_param {
    num_output: 1024
    kernel_size: 1
    weight_filler {
      type: "xavier"
    }
    bias_filler {
      type: "constant"
      value: 0
    }
  }
}
layer {
  name: "relu7"
  type: "ReLU"
  bottom: "fc7"
  top: "fc7"
}
layer {
  name: "conv6_1"
  type: "Convolution"
  bottom: "fc7"
  top: "conv6_1"
  param {
    lr_mult: 1
    decay_mult: 1
  }
  param {
    lr_mult: 2
    decay_mult: 0
  }
  convolution_param {
    num_output: 256
    pad: 0
    kernel_size: 1
    stride: 1
    weight_filler {
      type: "xavier"
    }
    bias_filler {
      type: "constant"
      value: 0
    }
  }
}
layer {
  name: "conv6_1_relu"
  type: "ReLU"
  bottom: "conv6_1"
  top: "conv6_1"
}
layer {
  name: "conv6_2"
  type: "Convolution"
  bottom: "conv6_1"
  top: "conv6_2"
  param {
    lr_mult: 1
    decay_mult: 1
  }
  param {
    lr_mult: 2
    decay_mult: 0
  }
  convolution_param {
    num_output: 512
    pad: 1
    kernel_size: 3
    stride: 2
    weight_filler {
      type: "xavier"
    }
    bias_filler {
      type: "constant"
      value: 0
    }
  }
}
layer {
  name: "conv6_2_relu"
  type: "ReLU"
  bottom: "conv6_2"
  top: "conv6_2"
}
layer {
  name: "conv7_1"
  type: "Convolution"
  bottom: "conv6_2"
  top: "conv7_1"
  param {
    lr_mult: 1
    decay_mult: 1
  }
  param {
    lr_mult: 2
    decay_mult: 0
  }
  convolution_param {
    num_output: 128
    pad: 0
    kernel_size: 1
    stride: 1
    weight_filler {
      type: "xavier"
    }
    bias_filler {
      type: "constant"
      value: 0
    }
  }
}
layer {
  name: "conv7_1_relu"
  type: "ReLU"
  bottom: "conv7_1"
  top: "conv7_1"
}
layer {
  name: "conv7_2"
  type: "Convolution"
  bottom: "conv7_1"
  top: "conv7_2"
  param {
    lr_mult: 1
    decay_mult: 1
  }
  param {
    lr_mult: 2
    decay_mult: 0
  }
  convolution_param {
    num_output: 256
    pad: 1
    kernel_size: 3
    stride: 2
    weight_filler {
      type: "xavier"
    }
    bias_filler {
      type: "constant"
      value: 0
    }
  }
}
layer {
  name: "conv7_2_relu"
  type: "ReLU"
  bottom: "conv7_2"
  top: "conv7_2"
}
layer {
  name: "conv8_1"
  type: "Convolution"
  bottom: "conv7_2"
  top: "conv8_1"
  param {
    lr_mult: 1
    decay_mult: 1
  }
  param {
    lr_mult: 2
    decay_mult: 0
  }
  convolution_param {
    num_output: 128
    pad: 0
    kernel_size: 1
    stride: 1
    weight_filler {
      type: "xavier"
    }
    bias_filler {
      type: "constant"
      value: 0
    }
  }
}
layer {
  name: "conv8_1_relu"
  type: "ReLU"
  bottom: "conv8_1"
  top: "conv8_1"
}
layer {
  name: "conv8_2"
  type: "Convolution"
  bottom: "conv8_1"
  top: "conv8_2"
  param {
    lr_mult: 1
    decay_mult: 1
  }
  param {
    lr_mult: 2
    decay_mult: 0
  }
  convolution_param {
    num_output: 256
    pad: 0
    kernel_size: 3
    stride: 1
    weight_filler {
      type: "xavier"
    }
    bias_filler {
      type: "constant"
      value: 0
    }
  }
}
layer {
  name: "conv8_2_relu"
  type: "ReLU"
  bottom: "conv8_2"
  top: "conv8_2"
}
layer {
  name: "conv9_1"
  type: "Convolution"
  bottom: "conv8_2"
  top: "conv9_1"
  param {
    lr_mult: 1
    decay_mult: 1
  }
  param {
    lr_mult: 2
    decay_mult: 0
  }
  convolution_param {
    num_output: 128
    pad: 0
    kernel_size: 1
    stride: 1
    weight_filler {
      type: "xavier"
    }
    bias_filler {
      type: "constant"
      value: 0
    }
  }
}
layer {
  name: "conv9_1_relu"
  type: "ReLU"
  bottom: "conv9_1"
  top: "conv9_1"
}
layer {
  name: "conv9_2"
  type: "Convolution"
  bottom: "conv9_1"
  top: "conv9_2"
  param {
    lr_mult: 1
    decay_mult: 1
  }
  param {
    lr_mult: 2
    decay_mult: 0
  }
  convolution_param {
    num_output: 256
    pad: 0
    kernel_size: 3
    stride: 1
    weight_filler {
      type: "xavier"
    }
    bias_filler {
      type: "constant"
      value: 0
    }
  }
}
layer {
  name: "conv9_2_relu"
  type: "ReLU"
  bottom: "conv9_2"
  top: "conv9_2"
}
layer {
  name: "conv4_3_norm"
  type: "Normalize"
  bottom: "conv4_3"
  top: "conv4_3_norm"
  norm_param {
    across_spatial: false
    scale_filler {
      type: "constant"
      value: 20
    }
    channel_shared: false
  }
}
layer {
  name: "conv4_3_norm_mbox_loc"
  type: "Convolution"
  bottom: "conv4_3_norm"
  top: "conv4_3_norm_mbox_loc"
  param {
    lr_mult: 1
    decay_mult: 1
  }
  param {
    lr_mult: 2
    decay_mult: 0
  }
  convolution_param {
    num_output: 16
    pad: 1
    kernel_size: 3
    stride: 1
    weight_filler {
      type: "xavier"
    }
    bias_filler {
      type: "constant"
      value: 0
    }
  }
}
layer {
  name: "conv4_3_norm_mbox_loc_perm"
  type: "Permute"
  bottom: "conv4_3_norm_mbox_loc"
  top: "conv4_3_norm_mbox_loc_perm"
  permute_param {
    order: 0
    order: 2
    order: 3
    order: 1
  }
}
layer {
  name: "conv4_3_norm_mbox_loc_flat"
  type: "Flatten"
  bottom: "conv4_3_norm_mbox_loc_perm"
  top: "conv4_3_norm_mbox_loc_flat"
  flatten_param {
    axis: 1
  }
}
layer {
  name: "conv4_3_norm_mbox_conf"
  type: "Convolution"
  bottom: "conv4_3_norm"
  top: "conv4_3_norm_mbox_conf"
  param {
    lr_mult: 1
    decay_mult: 1
  }
  param {
    lr_mult: 2
    decay_mult: 0
  }
  convolution_param {
    num_output: 84
    pad: 1
    kernel_size: 3
    stride: 1
    weight_filler {
      type: "xavier"
    }
    bias_filler {
      type: "constant"
      value: 0
    }
  }
}
layer {
  name: "conv4_3_norm_mbox_conf_perm"
  type: "Permute"
  bottom: "conv4_3_norm_mbox_conf"
  top: "conv4_3_norm_mbox_conf_perm"
  permute_param {
    order: 0
    order: 2
    order: 3
    order: 1
  }
}
layer {
  name: "conv4_3_norm_mbox_conf_flat"
  type: "Flatten"
  bottom: "conv4_3_norm_mbox_conf_perm"
  top: "conv4_3_norm_mbox_conf_flat"
  flatten_param {
    axis: 1
  }
}
layer {
  name: "conv4_3_norm_mbox_priorbox"
  type: "PriorBox"
  bottom: "conv4_3_norm"
  bottom: "data"
  top: "conv4_3_norm_mbox_priorbox"
  prior_box_param {
    min_size: 30
    max_size: 60
    aspect_ratio: 2
    flip: true
    clip: false
    variance: 0.1
    variance: 0.1
    variance: 0.2
    variance: 0.2
    step: 8
    offset: 0.5
  }
}
layer {
  name: "fc7_mbox_loc"
  type: "Convolution"
  bottom: "fc7"
  top: "fc7_mbox_loc"
  param {
    lr_mult: 1
    decay_mult: 1
  }
  param {
    lr_mult: 2
    decay_mult: 0
  }
  convolution_param {
    num_output: 24
    pad: 1
    kernel_size: 3
    stride: 1
    weight_filler {
      type: "xavier"
    }
    bias_filler {
      type: "constant"
      value: 0
    }
  }
}
layer {
  name: "fc7_mbox_loc_perm"
  type: "Permute"
  bottom: "fc7_mbox_loc"
  top: "fc7_mbox_loc_perm"
  permute_param {
    order: 0
    order: 2
    order: 3
    order: 1
  }
}
layer {
  name: "fc7_mbox_loc_flat"
  type: "Flatten"
  bottom: "fc7_mbox_loc_perm"
  top: "fc7_mbox_loc_flat"
  flatten_param {
    axis: 1
  }
}
layer {
  name: "fc7_mbox_conf"
  type: "Convolution"
  bottom: "fc7"
  top: "fc7_mbox_conf"
  param {
    lr_mult: 1
    decay_mult: 1
  }
  param {
    lr_mult: 2
    decay_mult: 0
  }
  convolution_param {
    num_output: 126
    pad: 1
    kernel_size: 3
    stride: 1
    weight_filler {
      type: "xavier"
    }
    bias_filler {
      type: "constant"
      value: 0
    }
  }
}
layer {
  name: "fc7_mbox_conf_perm"
  type: "Permute"
  bottom: "fc7_mbox_conf"
  top: "fc7_mbox_conf_perm"
  permute_param {
    order: 0
    order: 2
    order: 3
    order: 1
  }
}
layer {
  name: "fc7_mbox_conf_flat"
  type: "Flatten"
  bottom: "fc7_mbox_conf_perm"
  top: "fc7_mbox_conf_flat"
  flatten_param {
    axis: 1
  }
}
layer {
  name: "fc7_mbox_priorbox"
  type: "PriorBox"
  bottom: "fc7"
  bottom: "data"
  top: "fc7_mbox_priorbox"
  prior_box_param {
    min_size: 60
    max_size: 111
    aspect_ratio: 2
    aspect_ratio: 3
    flip: true
    clip: false
    variance: 0.1
    variance: 0.1
    variance: 0.2
    variance: 0.2
    step: 16
    offset: 0.5
  }
}
layer {
  name: "conv6_2_mbox_loc"
  type: "Convolution"
  bottom: "conv6_2"
  top: "conv6_2_mbox_loc"
  param {
    lr_mult: 1
    decay_mult: 1
  }
  param {
    lr_mult: 2
    decay_mult: 0
  }
  convolution_param {
    num_output: 24
    pad: 1
    kernel_size: 3
    stride: 1
    weight_filler {
      type: "xavier"
    }
    bias_filler {
      type: "constant"
      value: 0
    }
  }
}
layer {
  name: "conv6_2_mbox_loc_perm"
  type: "Permute"
  bottom: "conv6_2_mbox_loc"
  top: "conv6_2_mbox_loc_perm"
  permute_param {
    order: 0
    order: 2
    order: 3
    order: 1
  }
}
layer {
  name: "conv6_2_mbox_loc_flat"
  type: "Flatten"
  bottom: "conv6_2_mbox_loc_perm"
  top: "conv6_2_mbox_loc_flat"
  flatten_param {
    axis: 1
  }
}
layer {
  name: "conv6_2_mbox_conf"
  type: "Convolution"
  bottom: "conv6_2"
  top: "conv6_2_mbox_conf"
  param {
    lr_mult: 1
    decay_mult: 1
  }
  param {
    lr_mult: 2
    decay_mult: 0
  }
  convolution_param {
    num_output: 126
    pad: 1
    kernel_size: 3
    stride: 1
    weight_filler {
      type: "xavier"
    }
    bias_filler {
      type: "constant"
      value: 0
    }
  }
}
layer {
  name: "conv6_2_mbox_conf_perm"
  type: "Permute"
  bottom: "conv6_2_mbox_conf"
  top: "conv6_2_mbox_conf_perm"
  permute_param {
    order: 0
    order: 2
    order: 3
    order: 1
  }
}
layer {
  name: "conv6_2_mbox_conf_flat"
  type: "Flatten"
  bottom: "conv6_2_mbox_conf_perm"
  top: "conv6_2_mbox_conf_flat"
  flatten_param {
    axis: 1
  }
}
layer {
  name: "conv6_2_mbox_priorbox"
  type: "PriorBox"
  bottom: "conv6_2"
  bottom: "data"
  top: "conv6_2_mbox_priorbox"
  prior_box_param {
    min_size: 111
    max_size: 162
    aspect_ratio: 2
    aspect_ratio: 3
    flip: true
    clip: false
    variance: 0.1
    variance: 0.1
    variance: 0.2
    variance: 0.2
    step: 32
    offset: 0.5
  }
}
layer {
  name: "conv7_2_mbox_loc"
  type: "Convolution"
  bottom: "conv7_2"
  top: "conv7_2_mbox_loc"
  param {
    lr_mult: 1
    decay_mult: 1
  }
  param {
    lr_mult: 2
    decay_mult: 0
  }
  convolution_param {
    num_output: 24
    pad: 1
    kernel_size: 3
    stride: 1
    weight_filler {
      type: "xavier"
    }
    bias_filler {
      type: "constant"
      value: 0
    }
  }
}
layer {
  name: "conv7_2_mbox_loc_perm"
  type: "Permute"
  bottom: "conv7_2_mbox_loc"
  top: "conv7_2_mbox_loc_perm"
  permute_param {
    order: 0
    order: 2
    order: 3
    order: 1
  }
}
layer {
  name: "conv7_2_mbox_loc_flat"
  type: "Flatten"
  bottom: "conv7_2_mbox_loc_perm"
  top: "conv7_2_mbox_loc_flat"
  flatten_param {
    axis: 1
  }
}
layer {
  name: "conv7_2_mbox_conf"
  type: "Convolution"
  bottom: "conv7_2"
  top: "conv7_2_mbox_conf"
  param {
    lr_mult: 1
    decay_mult: 1
  }
  param {
    lr_mult: 2
    decay_mult: 0
  }
  convolution_param {
    num_output: 126
    pad: 1
    kernel_size: 3
    stride: 1
    weight_filler {
      type: "xavier"
    }
    bias_filler {
      type: "constant"
      value: 0
    }
  }
}
layer {
  name: "conv7_2_mbox_conf_perm"
  type: "Permute"
  bottom: "conv7_2_mbox_conf"
  top: "conv7_2_mbox_conf_perm"
  permute_param {
    order: 0
    order: 2
    order: 3
    order: 1
  }
}
layer {
  name: "conv7_2_mbox_conf_flat"
  type: "Flatten"
  bottom: "conv7_2_mbox_conf_perm"
  top: "conv7_2_mbox_conf_flat"
  flatten_param {
    axis: 1
  }
}
layer {
  name: "conv7_2_mbox_priorbox"
  type: "PriorBox"
  bottom: "conv7_2"
  bottom: "data"
  top: "conv7_2_mbox_priorbox"
  prior_box_param {
    min_size: 162
    max_size: 213
    aspect_ratio: 2
    aspect_ratio: 3
    flip: true
    clip: false
    variance: 0.1
    variance: 0.1
    variance: 0.2
    variance: 0.2
    step: 64
    offset: 0.5
  }
}
layer {
  name: "conv8_2_mbox_loc"
  type: "Convolution"
  bottom: "conv8_2"
  top: "conv8_2_mbox_loc"
  param {
    lr_mult: 1
    decay_mult: 1
  }
  param {
    lr_mult: 2
    decay_mult: 0
  }
  convolution_param {
    num_output: 16
    pad: 1
    kernel_size: 3
    stride: 1
    weight_filler {
      type: "xavier"
    }
    bias_filler {
      type: "constant"
      value: 0
    }
  }
}
layer {
  name: "conv8_2_mbox_loc_perm"
  type: "Permute"
  bottom: "conv8_2_mbox_loc"
  top: "conv8_2_mbox_loc_perm"
  permute_param {
    order: 0
    order: 2
    order: 3
    order: 1
  }
}
layer {
  name: "conv8_2_mbox_loc_flat"
  type: "Flatten"
  bottom: "conv8_2_mbox_loc_perm"
  top: "conv8_2_mbox_loc_flat"
  flatten_param {
    axis: 1
  }
}
layer {
  name: "conv8_2_mbox_conf"
  type: "Convolution"
  bottom: "conv8_2"
  top: "conv8_2_mbox_conf"
  param {
    lr_mult: 1
    decay_mult: 1
  }
  param {
    lr_mult: 2
    decay_mult: 0
  }
  convolution_param {
    num_output: 84
    pad: 1
    kernel_size: 3
    stride: 1
    weight_filler {
      type: "xavier"
    }
    bias_filler {
      type: "constant"
      value: 0
    }
  }
}
layer {
  name: "conv8_2_mbox_conf_perm"
  type: "Permute"
  bottom: "conv8_2_mbox_conf"
  top: "conv8_2_mbox_conf_perm"
  permute_param {
    order: 0
    order: 2
    order: 3
    order: 1
  }
}
layer {
  name: "conv8_2_mbox_conf_flat"
  type: "Flatten"
  bottom: "conv8_2_mbox_conf_perm"
  top: "conv8_2_mbox_conf_flat"
  flatten_param {
    axis: 1
  }
}
layer {
  name: "conv8_2_mbox_priorbox"
  type: "PriorBox"
  bottom: "conv8_2"
  bottom: "data"
  top: "conv8_2_mbox_priorbox"
  prior_box_param {
    min_size: 213
    max_size: 264
    aspect_ratio: 2
    flip: true
    clip: false
    variance: 0.1
    variance: 0.1
    variance: 0.2
    variance: 0.2
    step: 100
    offset: 0.5
  }
}
layer {
  name: "conv9_2_mbox_loc"
  type: "Convolution"
  bottom: "conv9_2"
  top: "conv9_2_mbox_loc"
  param {
    lr_mult: 1
    decay_mult: 1
  }
  param {
    lr_mult: 2
    decay_mult: 0
  }
  convolution_param {
    num_output: 16
    pad: 1
    kernel_size: 3
    stride: 1
    weight_filler {
      type: "xavier"
    }
    bias_filler {
      type: "constant"
      value: 0
    }
  }
}
layer {
  name: "conv9_2_mbox_loc_perm"
  type: "Permute"
  bottom: "conv9_2_mbox_loc"
  top: "conv9_2_mbox_loc_perm"
  permute_param {
    order: 0
    order: 2
    order: 3
    order: 1
  }
}
layer {
  name: "conv9_2_mbox_loc_flat"
  type: "Flatten"
  bottom: "conv9_2_mbox_loc_perm"
  top: "conv9_2_mbox_loc_flat"
  flatten_param {
    axis: 1
  }
}
layer {
  name: "conv9_2_mbox_conf"
  type: "Convolution"
  bottom: "conv9_2"
  top: "conv9_2_mbox_conf"
  param {
    lr_mult: 1
    decay_mult: 1
  }
  param {
    lr_mult: 2
    decay_mult: 0
  }
  convolution_param {
    num_output: 84
    pad: 1
    kernel_size: 3
    stride: 1
    weight_filler {
      type: "xavier"
    }
    bias_filler {
      type: "constant"
      value: 0
    }
  }
}
layer {
  name: "conv9_2_mbox_conf_perm"
  type: "Permute"
  bottom: "conv9_2_mbox_conf"
  top: "conv9_2_mbox_conf_perm"
  permute_param {
    order: 0
    order: 2
    order: 3
    order: 1
  }
}
layer {
  name: "conv9_2_mbox_conf_flat"
  type: "Flatten"
  bottom: "conv9_2_mbox_conf_perm"
  top: "conv9_2_mbox_conf_flat"
  flatten_param {
    axis: 1
  }
}
layer {
  name: "conv9_2_mbox_priorbox"
  type: "PriorBox"
  bottom: "conv9_2"
  bottom: "data"
  top: "conv9_2_mbox_priorbox"
  prior_box_param {
    min_size: 264
    max_size: 315
    aspect_ratio: 2
    flip: true
    clip: false
    variance: 0.1
    variance: 0.1
    variance: 0.2
    variance: 0.2
    step: 300
    offset: 0.5
  }
}
layer {
  name: "mbox_loc"
  type: "Concat"
  bottom: "conv4_3_norm_mbox_loc_flat"
  bottom: "fc7_mbox_loc_flat"
  bottom: "conv6_2_mbox_loc_flat"
  bottom: "conv7_2_mbox_loc_flat"
  bottom: "conv8_2_mbox_loc_flat"
  bottom: "conv9_2_mbox_loc_flat"
  top: "mbox_loc"
  concat_param {
    axis: 1
  }
}
layer {
  name: "mbox_conf"
  type: "Concat"
  bottom: "conv4_3_norm_mbox_conf_flat"
  bottom: "fc7_mbox_conf_flat"
  bottom: "conv6_2_mbox_conf_flat"
  bottom: "conv7_2_mbox_conf_flat"
  bottom: "conv8_2_mbox_conf_flat"
  bottom: "conv9_2_mbox_conf_flat"
  top: "mbox_conf"
  concat_param {
    axis: 1
  }
}
layer {
  name: "mbox_priorbox"
  type: "Concat"
  bottom: "conv4_3_norm_mbox_priorbox"
  bottom: "fc7_mbox_priorbox"
  bottom: "conv6_2_mbox_priorbox"
  bottom: "conv7_2_mbox_priorbox"
  bottom: "conv8_2_mbox_priorbox"
  bottom: "conv9_2_mbox_priorbox"
  top: "mbox_priorbox"
  concat_param {
    axis: 2
  }
}
layer {
  name: "mbox_loss"
  type: "MultiBoxLoss"
  bottom: "mbox_loc"
  bottom: "mbox_conf"
  bottom: "mbox_priorbox"
  bottom: "label"
  top: "mbox_loss"
  include {
    phase: TRAIN
  }
  propagate_down: true
  propagate_down: true
  propagate_down: false
  propagate_down: false
  loss_param {
    normalization: VALID
  }
  multibox_loss_param {
    loc_loss_type: SMOOTH_L1
    conf_loss_type: SOFTMAX
    loc_weight: 1
    num_classes: 21
    share_location: true
    match_type: PER_PREDICTION
    overlap_threshold: 0.5
    use_prior_for_matching: true
    background_label_id: 0
    use_difficult_gt: true
    neg_pos_ratio: 3
    neg_overlap: 0.5
    code_type: CENTER_SIZE
    ignore_cross_boundary_bbox: false
    mining_type: MAX_NEGATIVE
  }
}
I0213 19:37:34.193917  6127 layer_factory.hpp:77] Creating layer data
I0213 19:37:34.194388  6127 net.cpp:100] Creating Layer data
I0213 19:37:34.194398  6127 net.cpp:408] data -> data
I0213 19:37:34.194422  6127 net.cpp:408] data -> label
I0213 19:37:34.194923  6136 db_lmdb.cpp:35] Opened lmdb examples/VOC0712/VOC0712_trainval_lmdb
I0213 19:37:34.206349  6127 annotated_data_layer.cpp:62] output data size: 16,3,300,300
I0213 19:37:34.221921  6127 net.cpp:150] Setting up data
I0213 19:37:34.221941  6127 net.cpp:157] Top shape: 16 3 300 300 (4320000)
I0213 19:37:34.221946  6127 net.cpp:157] Top shape: 1 1 2 8 (16)
I0213 19:37:34.221947  6127 net.cpp:165] Memory required for data: 17280064
I0213 19:37:34.221966  6127 layer_factory.hpp:77] Creating layer data_data_0_split
I0213 19:37:34.221976  6127 net.cpp:100] Creating Layer data_data_0_split
I0213 19:37:34.221979  6127 net.cpp:434] data_data_0_split <- data
I0213 19:37:34.221992  6127 net.cpp:408] data_data_0_split -> data_data_0_split_0
I0213 19:37:34.221998  6127 net.cpp:408] data_data_0_split -> data_data_0_split_1
I0213 19:37:34.222002  6127 net.cpp:408] data_data_0_split -> data_data_0_split_2
I0213 19:37:34.222007  6127 net.cpp:408] data_data_0_split -> data_data_0_split_3
I0213 19:37:34.222009  6127 net.cpp:408] data_data_0_split -> data_data_0_split_4
I0213 19:37:34.222012  6127 net.cpp:408] data_data_0_split -> data_data_0_split_5
I0213 19:37:34.222015  6127 net.cpp:408] data_data_0_split -> data_data_0_split_6
I0213 19:37:34.222074  6127 net.cpp:150] Setting up data_data_0_split
I0213 19:37:34.222079  6127 net.cpp:157] Top shape: 16 3 300 300 (4320000)
I0213 19:37:34.222081  6127 net.cpp:157] Top shape: 16 3 300 300 (4320000)
I0213 19:37:34.222084  6127 net.cpp:157] Top shape: 16 3 300 300 (4320000)
I0213 19:37:34.222086  6127 net.cpp:157] Top shape: 16 3 300 300 (4320000)
I0213 19:37:34.222088  6127 net.cpp:157] Top shape: 16 3 300 300 (4320000)
I0213 19:37:34.222091  6127 net.cpp:157] Top shape: 16 3 300 300 (4320000)
I0213 19:37:34.222093  6127 net.cpp:157] Top shape: 16 3 300 300 (4320000)
I0213 19:37:34.222095  6127 net.cpp:165] Memory required for data: 138240064
I0213 19:37:34.222097  6127 layer_factory.hpp:77] Creating layer conv1_1
I0213 19:37:34.222108  6127 net.cpp:100] Creating Layer conv1_1
I0213 19:37:34.222110  6127 net.cpp:434] conv1_1 <- data_data_0_split_0
I0213 19:37:34.222115  6127 net.cpp:408] conv1_1 -> conv1_1
I0213 19:37:34.361213  6127 net.cpp:150] Setting up conv1_1
I0213 19:37:34.361233  6127 net.cpp:157] Top shape: 16 64 300 300 (92160000)
I0213 19:37:34.361237  6127 net.cpp:165] Memory required for data: 506880064
I0213 19:37:34.361249  6127 layer_factory.hpp:77] Creating layer relu1_1
I0213 19:37:34.361256  6127 net.cpp:100] Creating Layer relu1_1
I0213 19:37:34.361260  6127 net.cpp:434] relu1_1 <- conv1_1
I0213 19:37:34.361264  6127 net.cpp:395] relu1_1 -> conv1_1 (in-place)
I0213 19:37:34.361369  6127 net.cpp:150] Setting up relu1_1
I0213 19:37:34.361376  6127 net.cpp:157] Top shape: 16 64 300 300 (92160000)
I0213 19:37:34.361377  6127 net.cpp:165] Memory required for data: 875520064
I0213 19:37:34.361380  6127 layer_factory.hpp:77] Creating layer conv1_2
I0213 19:37:34.361388  6127 net.cpp:100] Creating Layer conv1_2
I0213 19:37:34.361390  6127 net.cpp:434] conv1_2 <- conv1_1
I0213 19:37:34.361394  6127 net.cpp:408] conv1_2 -> conv1_2
I0213 19:37:34.362716  6127 net.cpp:150] Setting up conv1_2
I0213 19:37:34.362726  6127 net.cpp:157] Top shape: 16 64 300 300 (92160000)
I0213 19:37:34.362728  6127 net.cpp:165] Memory required for data: 1244160064
I0213 19:37:34.362735  6127 layer_factory.hpp:77] Creating layer relu1_2
I0213 19:37:34.362738  6127 net.cpp:100] Creating Layer relu1_2
I0213 19:37:34.362740  6127 net.cpp:434] relu1_2 <- conv1_2
I0213 19:37:34.362745  6127 net.cpp:395] relu1_2 -> conv1_2 (in-place)
I0213 19:37:34.363129  6127 net.cpp:150] Setting up relu1_2
I0213 19:37:34.363137  6127 net.cpp:157] Top shape: 16 64 300 300 (92160000)
I0213 19:37:34.363139  6127 net.cpp:165] Memory required for data: 1612800064
I0213 19:37:34.363142  6127 layer_factory.hpp:77] Creating layer pool1
I0213 19:37:34.363147  6127 net.cpp:100] Creating Layer pool1
I0213 19:37:34.363148  6127 net.cpp:434] pool1 <- conv1_2
I0213 19:37:34.363152  6127 net.cpp:408] pool1 -> pool1
I0213 19:37:34.363183  6127 net.cpp:150] Setting up pool1
I0213 19:37:34.363188  6127 net.cpp:157] Top shape: 16 64 150 150 (23040000)
I0213 19:37:34.363189  6127 net.cpp:165] Memory required for data: 1704960064
I0213 19:37:34.363191  6127 layer_factory.hpp:77] Creating layer conv2_1
I0213 19:37:34.363198  6127 net.cpp:100] Creating Layer conv2_1
I0213 19:37:34.363199  6127 net.cpp:434] conv2_1 <- pool1
I0213 19:37:34.363204  6127 net.cpp:408] conv2_1 -> conv2_1
I0213 19:37:34.363881  6127 net.cpp:150] Setting up conv2_1
I0213 19:37:34.363889  6127 net.cpp:157] Top shape: 16 128 150 150 (46080000)
I0213 19:37:34.363891  6127 net.cpp:165] Memory required for data: 1889280064
I0213 19:37:34.363898  6127 layer_factory.hpp:77] Creating layer relu2_1
I0213 19:37:34.363901  6127 net.cpp:100] Creating Layer relu2_1
I0213 19:37:34.363903  6127 net.cpp:434] relu2_1 <- conv2_1
I0213 19:37:34.363906  6127 net.cpp:395] relu2_1 -> conv2_1 (in-place)
I0213 19:37:34.364305  6127 net.cpp:150] Setting up relu2_1
I0213 19:37:34.364312  6127 net.cpp:157] Top shape: 16 128 150 150 (46080000)
I0213 19:37:34.364315  6127 net.cpp:165] Memory required for data: 2073600064
I0213 19:37:34.364317  6127 layer_factory.hpp:77] Creating layer conv2_2
I0213 19:37:34.364323  6127 net.cpp:100] Creating Layer conv2_2
I0213 19:37:34.364326  6127 net.cpp:434] conv2_2 <- conv2_1
I0213 19:37:34.364329  6127 net.cpp:408] conv2_2 -> conv2_2
I0213 19:37:34.365810  6127 net.cpp:150] Setting up conv2_2
I0213 19:37:34.365818  6127 net.cpp:157] Top shape: 16 128 150 150 (46080000)
I0213 19:37:34.365821  6127 net.cpp:165] Memory required for data: 2257920064
I0213 19:37:34.365825  6127 layer_factory.hpp:77] Creating layer relu2_2
I0213 19:37:34.365829  6127 net.cpp:100] Creating Layer relu2_2
I0213 19:37:34.365833  6127 net.cpp:434] relu2_2 <- conv2_2
I0213 19:37:34.365835  6127 net.cpp:395] relu2_2 -> conv2_2 (in-place)
I0213 19:37:34.365936  6127 net.cpp:150] Setting up relu2_2
I0213 19:37:34.365942  6127 net.cpp:157] Top shape: 16 128 150 150 (46080000)
I0213 19:37:34.365943  6127 net.cpp:165] Memory required for data: 2442240064
I0213 19:37:34.365947  6127 layer_factory.hpp:77] Creating layer pool2
I0213 19:37:34.365950  6127 net.cpp:100] Creating Layer pool2
I0213 19:37:34.365952  6127 net.cpp:434] pool2 <- conv2_2
I0213 19:37:34.365955  6127 net.cpp:408] pool2 -> pool2
I0213 19:37:34.365978  6127 net.cpp:150] Setting up pool2
I0213 19:37:34.365983  6127 net.cpp:157] Top shape: 16 128 75 75 (11520000)
I0213 19:37:34.365984  6127 net.cpp:165] Memory required for data: 2488320064
I0213 19:37:34.365988  6127 layer_factory.hpp:77] Creating layer conv3_1
I0213 19:37:34.365993  6127 net.cpp:100] Creating Layer conv3_1
I0213 19:37:34.365995  6127 net.cpp:434] conv3_1 <- pool2
I0213 19:37:34.365998  6127 net.cpp:408] conv3_1 -> conv3_1
I0213 19:37:34.368820  6127 net.cpp:150] Setting up conv3_1
I0213 19:37:34.368830  6127 net.cpp:157] Top shape: 16 256 75 75 (23040000)
I0213 19:37:34.368834  6127 net.cpp:165] Memory required for data: 2580480064
I0213 19:37:34.368840  6127 layer_factory.hpp:77] Creating layer relu3_1
I0213 19:37:34.368845  6127 net.cpp:100] Creating Layer relu3_1
I0213 19:37:34.368847  6127 net.cpp:434] relu3_1 <- conv3_1
I0213 19:37:34.368851  6127 net.cpp:395] relu3_1 -> conv3_1 (in-place)
I0213 19:37:34.368959  6127 net.cpp:150] Setting up relu3_1
I0213 19:37:34.368964  6127 net.cpp:157] Top shape: 16 256 75 75 (23040000)
I0213 19:37:34.368968  6127 net.cpp:165] Memory required for data: 2672640064
I0213 19:37:34.368969  6127 layer_factory.hpp:77] Creating layer conv3_2
I0213 19:37:34.368974  6127 net.cpp:100] Creating Layer conv3_2
I0213 19:37:34.368978  6127 net.cpp:434] conv3_2 <- conv3_1
I0213 19:37:34.368981  6127 net.cpp:408] conv3_2 -> conv3_2
I0213 19:37:34.372308  6127 net.cpp:150] Setting up conv3_2
I0213 19:37:34.372316  6127 net.cpp:157] Top shape: 16 256 75 75 (23040000)
I0213 19:37:34.372319  6127 net.cpp:165] Memory required for data: 2764800064
I0213 19:37:34.372323  6127 layer_factory.hpp:77] Creating layer relu3_2
I0213 19:37:34.372328  6127 net.cpp:100] Creating Layer relu3_2
I0213 19:37:34.372331  6127 net.cpp:434] relu3_2 <- conv3_2
I0213 19:37:34.372335  6127 net.cpp:395] relu3_2 -> conv3_2 (in-place)
I0213 19:37:34.372442  6127 net.cpp:150] Setting up relu3_2
I0213 19:37:34.372448  6127 net.cpp:157] Top shape: 16 256 75 75 (23040000)
I0213 19:37:34.372450  6127 net.cpp:165] Memory required for data: 2856960064
I0213 19:37:34.372453  6127 layer_factory.hpp:77] Creating layer conv3_3
I0213 19:37:34.372470  6127 net.cpp:100] Creating Layer conv3_3
I0213 19:37:34.372473  6127 net.cpp:434] conv3_3 <- conv3_2
I0213 19:37:34.372478  6127 net.cpp:408] conv3_3 -> conv3_3
I0213 19:37:34.375891  6127 net.cpp:150] Setting up conv3_3
I0213 19:37:34.375905  6127 net.cpp:157] Top shape: 16 256 75 75 (23040000)
I0213 19:37:34.375908  6127 net.cpp:165] Memory required for data: 2949120064
I0213 19:37:34.375915  6127 layer_factory.hpp:77] Creating layer relu3_3
I0213 19:37:34.375918  6127 net.cpp:100] Creating Layer relu3_3
I0213 19:37:34.375921  6127 net.cpp:434] relu3_3 <- conv3_3
I0213 19:37:34.375926  6127 net.cpp:395] relu3_3 -> conv3_3 (in-place)
I0213 19:37:34.376035  6127 net.cpp:150] Setting up relu3_3
I0213 19:37:34.376040  6127 net.cpp:157] Top shape: 16 256 75 75 (23040000)
I0213 19:37:34.376042  6127 net.cpp:165] Memory required for data: 3041280064
I0213 19:37:34.376045  6127 layer_factory.hpp:77] Creating layer pool3
I0213 19:37:34.376049  6127 net.cpp:100] Creating Layer pool3
I0213 19:37:34.376051  6127 net.cpp:434] pool3 <- conv3_3
I0213 19:37:34.376055  6127 net.cpp:408] pool3 -> pool3
I0213 19:37:34.376081  6127 net.cpp:150] Setting up pool3
I0213 19:37:34.376085  6127 net.cpp:157] Top shape: 16 256 38 38 (5914624)
I0213 19:37:34.376087  6127 net.cpp:165] Memory required for data: 3064938560
I0213 19:37:34.376090  6127 layer_factory.hpp:77] Creating layer conv4_1
I0213 19:37:34.376097  6127 net.cpp:100] Creating Layer conv4_1
I0213 19:37:34.376099  6127 net.cpp:434] conv4_1 <- pool3
I0213 19:37:34.376102  6127 net.cpp:408] conv4_1 -> conv4_1
I0213 19:37:34.382086  6127 net.cpp:150] Setting up conv4_1
I0213 19:37:34.382100  6127 net.cpp:157] Top shape: 16 512 38 38 (11829248)
I0213 19:37:34.382103  6127 net.cpp:165] Memory required for data: 3112255552
I0213 19:37:34.382109  6127 layer_factory.hpp:77] Creating layer relu4_1
I0213 19:37:34.382115  6127 net.cpp:100] Creating Layer relu4_1
I0213 19:37:34.382118  6127 net.cpp:434] relu4_1 <- conv4_1
I0213 19:37:34.382123  6127 net.cpp:395] relu4_1 -> conv4_1 (in-place)
I0213 19:37:34.382524  6127 net.cpp:150] Setting up relu4_1
I0213 19:37:34.382532  6127 net.cpp:157] Top shape: 16 512 38 38 (11829248)
I0213 19:37:34.382534  6127 net.cpp:165] Memory required for data: 3159572544
I0213 19:37:34.382536  6127 layer_factory.hpp:77] Creating layer conv4_2
I0213 19:37:34.382544  6127 net.cpp:100] Creating Layer conv4_2
I0213 19:37:34.382546  6127 net.cpp:434] conv4_2 <- conv4_1
I0213 19:37:34.382550  6127 net.cpp:408] conv4_2 -> conv4_2
I0213 19:37:34.391897  6127 net.cpp:150] Setting up conv4_2
I0213 19:37:34.391917  6127 net.cpp:157] Top shape: 16 512 38 38 (11829248)
I0213 19:37:34.391921  6127 net.cpp:165] Memory required for data: 3206889536
I0213 19:37:34.391930  6127 layer_factory.hpp:77] Creating layer relu4_2
I0213 19:37:34.391938  6127 net.cpp:100] Creating Layer relu4_2
I0213 19:37:34.391942  6127 net.cpp:434] relu4_2 <- conv4_2
I0213 19:37:34.391945  6127 net.cpp:395] relu4_2 -> conv4_2 (in-place)
I0213 19:37:34.392432  6127 net.cpp:150] Setting up relu4_2
I0213 19:37:34.392439  6127 net.cpp:157] Top shape: 16 512 38 38 (11829248)
I0213 19:37:34.392442  6127 net.cpp:165] Memory required for data: 3254206528
I0213 19:37:34.392444  6127 layer_factory.hpp:77] Creating layer conv4_3
I0213 19:37:34.392452  6127 net.cpp:100] Creating Layer conv4_3
I0213 19:37:34.392454  6127 net.cpp:434] conv4_3 <- conv4_2
I0213 19:37:34.392458  6127 net.cpp:408] conv4_3 -> conv4_3
I0213 19:37:34.402137  6127 net.cpp:150] Setting up conv4_3
I0213 19:37:34.402155  6127 net.cpp:157] Top shape: 16 512 38 38 (11829248)
I0213 19:37:34.402158  6127 net.cpp:165] Memory required for data: 3301523520
I0213 19:37:34.402164  6127 layer_factory.hpp:77] Creating layer relu4_3
I0213 19:37:34.402170  6127 net.cpp:100] Creating Layer relu4_3
I0213 19:37:34.402173  6127 net.cpp:434] relu4_3 <- conv4_3
I0213 19:37:34.402179  6127 net.cpp:395] relu4_3 -> conv4_3 (in-place)
I0213 19:37:34.402289  6127 net.cpp:150] Setting up relu4_3
I0213 19:37:34.402295  6127 net.cpp:157] Top shape: 16 512 38 38 (11829248)
I0213 19:37:34.402307  6127 net.cpp:165] Memory required for data: 3348840512
I0213 19:37:34.402309  6127 layer_factory.hpp:77] Creating layer conv4_3_relu4_3_0_split
I0213 19:37:34.402312  6127 net.cpp:100] Creating Layer conv4_3_relu4_3_0_split
I0213 19:37:34.402315  6127 net.cpp:434] conv4_3_relu4_3_0_split <- conv4_3
I0213 19:37:34.402319  6127 net.cpp:408] conv4_3_relu4_3_0_split -> conv4_3_relu4_3_0_split_0
I0213 19:37:34.402323  6127 net.cpp:408] conv4_3_relu4_3_0_split -> conv4_3_relu4_3_0_split_1
I0213 19:37:34.402348  6127 net.cpp:150] Setting up conv4_3_relu4_3_0_split
I0213 19:37:34.402353  6127 net.cpp:157] Top shape: 16 512 38 38 (11829248)
I0213 19:37:34.402355  6127 net.cpp:157] Top shape: 16 512 38 38 (11829248)
I0213 19:37:34.402357  6127 net.cpp:165] Memory required for data: 3443474496
I0213 19:37:34.402359  6127 layer_factory.hpp:77] Creating layer pool4
I0213 19:37:34.402364  6127 net.cpp:100] Creating Layer pool4
I0213 19:37:34.402365  6127 net.cpp:434] pool4 <- conv4_3_relu4_3_0_split_0
I0213 19:37:34.402369  6127 net.cpp:408] pool4 -> pool4
I0213 19:37:34.402392  6127 net.cpp:150] Setting up pool4
I0213 19:37:34.402396  6127 net.cpp:157] Top shape: 16 512 19 19 (2957312)
I0213 19:37:34.402400  6127 net.cpp:165] Memory required for data: 3455303744
I0213 19:37:34.402401  6127 layer_factory.hpp:77] Creating layer conv5_1
I0213 19:37:34.402407  6127 net.cpp:100] Creating Layer conv5_1
I0213 19:37:34.402410  6127 net.cpp:434] conv5_1 <- pool4
I0213 19:37:34.402415  6127 net.cpp:408] conv5_1 -> conv5_1
I0213 19:37:34.412456  6127 net.cpp:150] Setting up conv5_1
I0213 19:37:34.412472  6127 net.cpp:157] Top shape: 16 512 19 19 (2957312)
I0213 19:37:34.412475  6127 net.cpp:165] Memory required for data: 3467132992
I0213 19:37:34.412482  6127 layer_factory.hpp:77] Creating layer relu5_1
I0213 19:37:34.412487  6127 net.cpp:100] Creating Layer relu5_1
I0213 19:37:34.412492  6127 net.cpp:434] relu5_1 <- conv5_1
I0213 19:37:34.412495  6127 net.cpp:395] relu5_1 -> conv5_1 (in-place)
I0213 19:37:34.412607  6127 net.cpp:150] Setting up relu5_1
I0213 19:37:34.412613  6127 net.cpp:157] Top shape: 16 512 19 19 (2957312)
I0213 19:37:34.412616  6127 net.cpp:165] Memory required for data: 3478962240
I0213 19:37:34.412617  6127 layer_factory.hpp:77] Creating layer conv5_2
I0213 19:37:34.412624  6127 net.cpp:100] Creating Layer conv5_2
I0213 19:37:34.412627  6127 net.cpp:434] conv5_2 <- conv5_1
I0213 19:37:34.412631  6127 net.cpp:408] conv5_2 -> conv5_2
I0213 19:37:34.423094  6127 net.cpp:150] Setting up conv5_2
I0213 19:37:34.423113  6127 net.cpp:157] Top shape: 16 512 19 19 (2957312)
I0213 19:37:34.423116  6127 net.cpp:165] Memory required for data: 3490791488
I0213 19:37:34.423122  6127 layer_factory.hpp:77] Creating layer relu5_2
I0213 19:37:34.423130  6127 net.cpp:100] Creating Layer relu5_2
I0213 19:37:34.423133  6127 net.cpp:434] relu5_2 <- conv5_2
I0213 19:37:34.423137  6127 net.cpp:395] relu5_2 -> conv5_2 (in-place)
I0213 19:37:34.423243  6127 net.cpp:150] Setting up relu5_2
I0213 19:37:34.423249  6127 net.cpp:157] Top shape: 16 512 19 19 (2957312)
I0213 19:37:34.423250  6127 net.cpp:165] Memory required for data: 3502620736
I0213 19:37:34.423252  6127 layer_factory.hpp:77] Creating layer conv5_3
I0213 19:37:34.423260  6127 net.cpp:100] Creating Layer conv5_3
I0213 19:37:34.423262  6127 net.cpp:434] conv5_3 <- conv5_2
I0213 19:37:34.423266  6127 net.cpp:408] conv5_3 -> conv5_3
I0213 19:37:34.433090  6127 net.cpp:150] Setting up conv5_3
I0213 19:37:34.433110  6127 net.cpp:157] Top shape: 16 512 19 19 (2957312)
I0213 19:37:34.433114  6127 net.cpp:165] Memory required for data: 3514449984
I0213 19:37:34.433120  6127 layer_factory.hpp:77] Creating layer relu5_3
I0213 19:37:34.433130  6127 net.cpp:100] Creating Layer relu5_3
I0213 19:37:34.433135  6127 net.cpp:434] relu5_3 <- conv5_3
I0213 19:37:34.433138  6127 net.cpp:395] relu5_3 -> conv5_3 (in-place)
I0213 19:37:34.433244  6127 net.cpp:150] Setting up relu5_3
I0213 19:37:34.433250  6127 net.cpp:157] Top shape: 16 512 19 19 (2957312)
I0213 19:37:34.433261  6127 net.cpp:165] Memory required for data: 3526279232
I0213 19:37:34.433264  6127 layer_factory.hpp:77] Creating layer pool5
I0213 19:37:34.433269  6127 net.cpp:100] Creating Layer pool5
I0213 19:37:34.433271  6127 net.cpp:434] pool5 <- conv5_3
I0213 19:37:34.433274  6127 net.cpp:408] pool5 -> pool5
I0213 19:37:34.433302  6127 net.cpp:150] Setting up pool5
I0213 19:37:34.433306  6127 net.cpp:157] Top shape: 16 512 19 19 (2957312)
I0213 19:37:34.433308  6127 net.cpp:165] Memory required for data: 3538108480
I0213 19:37:34.433310  6127 layer_factory.hpp:77] Creating layer fc6
I0213 19:37:34.433317  6127 net.cpp:100] Creating Layer fc6
I0213 19:37:34.433320  6127 net.cpp:434] fc6 <- pool5
I0213 19:37:34.433324  6127 net.cpp:408] fc6 -> fc6
I0213 19:37:34.451195  6127 net.cpp:150] Setting up fc6
I0213 19:37:34.451217  6127 net.cpp:157] Top shape: 16 1024 19 19 (5914624)
I0213 19:37:34.451220  6127 net.cpp:165] Memory required for data: 3561766976
I0213 19:37:34.451226  6127 layer_factory.hpp:77] Creating layer relu6
I0213 19:37:34.451234  6127 net.cpp:100] Creating Layer relu6
I0213 19:37:34.451237  6127 net.cpp:434] relu6 <- fc6
I0213 19:37:34.451242  6127 net.cpp:395] relu6 -> fc6 (in-place)
I0213 19:37:34.451813  6127 net.cpp:150] Setting up relu6
I0213 19:37:34.451822  6127 net.cpp:157] Top shape: 16 1024 19 19 (5914624)
I0213 19:37:34.451824  6127 net.cpp:165] Memory required for data: 3585425472
I0213 19:37:34.451827  6127 layer_factory.hpp:77] Creating layer fc7
I0213 19:37:34.451833  6127 net.cpp:100] Creating Layer fc7
I0213 19:37:34.451836  6127 net.cpp:434] fc7 <- fc6
I0213 19:37:34.451841  6127 net.cpp:408] fc7 -> fc7
I0213 19:37:34.456647  6127 net.cpp:150] Setting up fc7
I0213 19:37:34.456660  6127 net.cpp:157] Top shape: 16 1024 19 19 (5914624)
I0213 19:37:34.456661  6127 net.cpp:165] Memory required for data: 3609083968
I0213 19:37:34.456666  6127 layer_factory.hpp:77] Creating layer relu7
I0213 19:37:34.456673  6127 net.cpp:100] Creating Layer relu7
I0213 19:37:34.456676  6127 net.cpp:434] relu7 <- fc7
I0213 19:37:34.456681  6127 net.cpp:395] relu7 -> fc7 (in-place)
I0213 19:37:34.456785  6127 net.cpp:150] Setting up relu7
I0213 19:37:34.456791  6127 net.cpp:157] Top shape: 16 1024 19 19 (5914624)
I0213 19:37:34.456794  6127 net.cpp:165] Memory required for data: 3632742464
I0213 19:37:34.456796  6127 layer_factory.hpp:77] Creating layer fc7_relu7_0_split
I0213 19:37:34.456800  6127 net.cpp:100] Creating Layer fc7_relu7_0_split
I0213 19:37:34.456802  6127 net.cpp:434] fc7_relu7_0_split <- fc7
I0213 19:37:34.456805  6127 net.cpp:408] fc7_relu7_0_split -> fc7_relu7_0_split_0
I0213 19:37:34.456809  6127 net.cpp:408] fc7_relu7_0_split -> fc7_relu7_0_split_1
I0213 19:37:34.456816  6127 net.cpp:408] fc7_relu7_0_split -> fc7_relu7_0_split_2
I0213 19:37:34.456820  6127 net.cpp:408] fc7_relu7_0_split -> fc7_relu7_0_split_3
I0213 19:37:34.456861  6127 net.cpp:150] Setting up fc7_relu7_0_split
I0213 19:37:34.456866  6127 net.cpp:157] Top shape: 16 1024 19 19 (5914624)
I0213 19:37:34.456868  6127 net.cpp:157] Top shape: 16 1024 19 19 (5914624)
I0213 19:37:34.456871  6127 net.cpp:157] Top shape: 16 1024 19 19 (5914624)
I0213 19:37:34.456873  6127 net.cpp:157] Top shape: 16 1024 19 19 (5914624)
I0213 19:37:34.456876  6127 net.cpp:165] Memory required for data: 3727376448
I0213 19:37:34.456877  6127 layer_factory.hpp:77] Creating layer conv6_1
I0213 19:37:34.456885  6127 net.cpp:100] Creating Layer conv6_1
I0213 19:37:34.456887  6127 net.cpp:434] conv6_1 <- fc7_relu7_0_split_0
I0213 19:37:34.456892  6127 net.cpp:408] conv6_1 -> conv6_1
I0213 19:37:34.459267  6127 net.cpp:150] Setting up conv6_1
I0213 19:37:34.459276  6127 net.cpp:157] Top shape: 16 256 19 19 (1478656)
I0213 19:37:34.459280  6127 net.cpp:165] Memory required for data: 3733291072
I0213 19:37:34.459283  6127 layer_factory.hpp:77] Creating layer conv6_1_relu
I0213 19:37:34.459288  6127 net.cpp:100] Creating Layer conv6_1_relu
I0213 19:37:34.459291  6127 net.cpp:434] conv6_1_relu <- conv6_1
I0213 19:37:34.459295  6127 net.cpp:395] conv6_1_relu -> conv6_1 (in-place)
I0213 19:37:34.459414  6127 net.cpp:150] Setting up conv6_1_relu
I0213 19:37:34.459419  6127 net.cpp:157] Top shape: 16 256 19 19 (1478656)
I0213 19:37:34.459421  6127 net.cpp:165] Memory required for data: 3739205696
I0213 19:37:34.459424  6127 layer_factory.hpp:77] Creating layer conv6_2
I0213 19:37:34.459429  6127 net.cpp:100] Creating Layer conv6_2
I0213 19:37:34.459432  6127 net.cpp:434] conv6_2 <- conv6_1
I0213 19:37:34.459436  6127 net.cpp:408] conv6_2 -> conv6_2
I0213 19:37:34.464795  6127 net.cpp:150] Setting up conv6_2
I0213 19:37:34.464812  6127 net.cpp:157] Top shape: 16 512 10 10 (819200)
I0213 19:37:34.464815  6127 net.cpp:165] Memory required for data: 3742482496
I0213 19:37:34.464825  6127 layer_factory.hpp:77] Creating layer conv6_2_relu
I0213 19:37:34.464831  6127 net.cpp:100] Creating Layer conv6_2_relu
I0213 19:37:34.464834  6127 net.cpp:434] conv6_2_relu <- conv6_2
I0213 19:37:34.464838  6127 net.cpp:395] conv6_2_relu -> conv6_2 (in-place)
I0213 19:37:34.464946  6127 net.cpp:150] Setting up conv6_2_relu
I0213 19:37:34.464952  6127 net.cpp:157] Top shape: 16 512 10 10 (819200)
I0213 19:37:34.464954  6127 net.cpp:165] Memory required for data: 3745759296
I0213 19:37:34.464956  6127 layer_factory.hpp:77] Creating layer conv6_2_conv6_2_relu_0_split
I0213 19:37:34.464960  6127 net.cpp:100] Creating Layer conv6_2_conv6_2_relu_0_split
I0213 19:37:34.464962  6127 net.cpp:434] conv6_2_conv6_2_relu_0_split <- conv6_2
I0213 19:37:34.464967  6127 net.cpp:408] conv6_2_conv6_2_relu_0_split -> conv6_2_conv6_2_relu_0_split_0
I0213 19:37:34.464972  6127 net.cpp:408] conv6_2_conv6_2_relu_0_split -> conv6_2_conv6_2_relu_0_split_1
I0213 19:37:34.464974  6127 net.cpp:408] conv6_2_conv6_2_relu_0_split -> conv6_2_conv6_2_relu_0_split_2
I0213 19:37:34.464978  6127 net.cpp:408] conv6_2_conv6_2_relu_0_split -> conv6_2_conv6_2_relu_0_split_3
I0213 19:37:34.465023  6127 net.cpp:150] Setting up conv6_2_conv6_2_relu_0_split
I0213 19:37:34.465028  6127 net.cpp:157] Top shape: 16 512 10 10 (819200)
I0213 19:37:34.465029  6127 net.cpp:157] Top shape: 16 512 10 10 (819200)
I0213 19:37:34.465032  6127 net.cpp:157] Top shape: 16 512 10 10 (819200)
I0213 19:37:34.465034  6127 net.cpp:157] Top shape: 16 512 10 10 (819200)
I0213 19:37:34.465036  6127 net.cpp:165] Memory required for data: 3758866496
I0213 19:37:34.465039  6127 layer_factory.hpp:77] Creating layer conv7_1
I0213 19:37:34.465045  6127 net.cpp:100] Creating Layer conv7_1
I0213 19:37:34.465047  6127 net.cpp:434] conv7_1 <- conv6_2_conv6_2_relu_0_split_0
I0213 19:37:34.465051  6127 net.cpp:408] conv7_1 -> conv7_1
I0213 19:37:34.466075  6127 net.cpp:150] Setting up conv7_1
I0213 19:37:34.466084  6127 net.cpp:157] Top shape: 16 128 10 10 (204800)
I0213 19:37:34.466085  6127 net.cpp:165] Memory required for data: 3759685696
I0213 19:37:34.466089  6127 layer_factory.hpp:77] Creating layer conv7_1_relu
I0213 19:37:34.466094  6127 net.cpp:100] Creating Layer conv7_1_relu
I0213 19:37:34.466096  6127 net.cpp:434] conv7_1_relu <- conv7_1
I0213 19:37:34.466101  6127 net.cpp:395] conv7_1_relu -> conv7_1 (in-place)
I0213 19:37:34.466203  6127 net.cpp:150] Setting up conv7_1_relu
I0213 19:37:34.466209  6127 net.cpp:157] Top shape: 16 128 10 10 (204800)
I0213 19:37:34.466212  6127 net.cpp:165] Memory required for data: 3760504896
I0213 19:37:34.466213  6127 layer_factory.hpp:77] Creating layer conv7_2
I0213 19:37:34.466218  6127 net.cpp:100] Creating Layer conv7_2
I0213 19:37:34.466222  6127 net.cpp:434] conv7_2 <- conv7_1
I0213 19:37:34.466225  6127 net.cpp:408] conv7_2 -> conv7_2
I0213 19:37:34.468400  6127 net.cpp:150] Setting up conv7_2
I0213 19:37:34.468410  6127 net.cpp:157] Top shape: 16 256 5 5 (102400)
I0213 19:37:34.468412  6127 net.cpp:165] Memory required for data: 3760914496
I0213 19:37:34.468416  6127 layer_factory.hpp:77] Creating layer conv7_2_relu
I0213 19:37:34.468422  6127 net.cpp:100] Creating Layer conv7_2_relu
I0213 19:37:34.468425  6127 net.cpp:434] conv7_2_relu <- conv7_2
I0213 19:37:34.468428  6127 net.cpp:395] conv7_2_relu -> conv7_2 (in-place)
I0213 19:37:34.468544  6127 net.cpp:150] Setting up conv7_2_relu
I0213 19:37:34.468549  6127 net.cpp:157] Top shape: 16 256 5 5 (102400)
I0213 19:37:34.468551  6127 net.cpp:165] Memory required for data: 3761324096
I0213 19:37:34.468554  6127 layer_factory.hpp:77] Creating layer conv7_2_conv7_2_relu_0_split
I0213 19:37:34.468559  6127 net.cpp:100] Creating Layer conv7_2_conv7_2_relu_0_split
I0213 19:37:34.468560  6127 net.cpp:434] conv7_2_conv7_2_relu_0_split <- conv7_2
I0213 19:37:34.468564  6127 net.cpp:408] conv7_2_conv7_2_relu_0_split -> conv7_2_conv7_2_relu_0_split_0
I0213 19:37:34.468569  6127 net.cpp:408] conv7_2_conv7_2_relu_0_split -> conv7_2_conv7_2_relu_0_split_1
I0213 19:37:34.468571  6127 net.cpp:408] conv7_2_conv7_2_relu_0_split -> conv7_2_conv7_2_relu_0_split_2
I0213 19:37:34.468575  6127 net.cpp:408] conv7_2_conv7_2_relu_0_split -> conv7_2_conv7_2_relu_0_split_3
I0213 19:37:34.468617  6127 net.cpp:150] Setting up conv7_2_conv7_2_relu_0_split
I0213 19:37:34.468621  6127 net.cpp:157] Top shape: 16 256 5 5 (102400)
I0213 19:37:34.468623  6127 net.cpp:157] Top shape: 16 256 5 5 (102400)
I0213 19:37:34.468626  6127 net.cpp:157] Top shape: 16 256 5 5 (102400)
I0213 19:37:34.468628  6127 net.cpp:157] Top shape: 16 256 5 5 (102400)
I0213 19:37:34.468631  6127 net.cpp:165] Memory required for data: 3762962496
I0213 19:37:34.468632  6127 layer_factory.hpp:77] Creating layer conv8_1
I0213 19:37:34.468638  6127 net.cpp:100] Creating Layer conv8_1
I0213 19:37:34.468641  6127 net.cpp:434] conv8_1 <- conv7_2_conv7_2_relu_0_split_0
I0213 19:37:34.468646  6127 net.cpp:408] conv8_1 -> conv8_1
I0213 19:37:34.469557  6127 net.cpp:150] Setting up conv8_1
I0213 19:37:34.469565  6127 net.cpp:157] Top shape: 16 128 5 5 (51200)
I0213 19:37:34.469568  6127 net.cpp:165] Memory required for data: 3763167296
I0213 19:37:34.469571  6127 layer_factory.hpp:77] Creating layer conv8_1_relu
I0213 19:37:34.469575  6127 net.cpp:100] Creating Layer conv8_1_relu
I0213 19:37:34.469578  6127 net.cpp:434] conv8_1_relu <- conv8_1
I0213 19:37:34.469581  6127 net.cpp:395] conv8_1_relu -> conv8_1 (in-place)
I0213 19:37:34.470000  6127 net.cpp:150] Setting up conv8_1_relu
I0213 19:37:34.470008  6127 net.cpp:157] Top shape: 16 128 5 5 (51200)
I0213 19:37:34.470010  6127 net.cpp:165] Memory required for data: 3763372096
I0213 19:37:34.470012  6127 layer_factory.hpp:77] Creating layer conv8_2
I0213 19:37:34.470019  6127 net.cpp:100] Creating Layer conv8_2
I0213 19:37:34.470022  6127 net.cpp:434] conv8_2 <- conv8_1
I0213 19:37:34.470026  6127 net.cpp:408] conv8_2 -> conv8_2
I0213 19:37:34.472229  6127 net.cpp:150] Setting up conv8_2
I0213 19:37:34.472239  6127 net.cpp:157] Top shape: 16 256 3 3 (36864)
I0213 19:37:34.472241  6127 net.cpp:165] Memory required for data: 3763519552
I0213 19:37:34.472245  6127 layer_factory.hpp:77] Creating layer conv8_2_relu
I0213 19:37:34.472249  6127 net.cpp:100] Creating Layer conv8_2_relu
I0213 19:37:34.472252  6127 net.cpp:434] conv8_2_relu <- conv8_2
I0213 19:37:34.472257  6127 net.cpp:395] conv8_2_relu -> conv8_2 (in-place)
I0213 19:37:34.472362  6127 net.cpp:150] Setting up conv8_2_relu
I0213 19:37:34.472368  6127 net.cpp:157] Top shape: 16 256 3 3 (36864)
I0213 19:37:34.472370  6127 net.cpp:165] Memory required for data: 3763667008
I0213 19:37:34.472373  6127 layer_factory.hpp:77] Creating layer conv8_2_conv8_2_relu_0_split
I0213 19:37:34.472376  6127 net.cpp:100] Creating Layer conv8_2_conv8_2_relu_0_split
I0213 19:37:34.472378  6127 net.cpp:434] conv8_2_conv8_2_relu_0_split <- conv8_2
I0213 19:37:34.472383  6127 net.cpp:408] conv8_2_conv8_2_relu_0_split -> conv8_2_conv8_2_relu_0_split_0
I0213 19:37:34.472386  6127 net.cpp:408] conv8_2_conv8_2_relu_0_split -> conv8_2_conv8_2_relu_0_split_1
I0213 19:37:34.472389  6127 net.cpp:408] conv8_2_conv8_2_relu_0_split -> conv8_2_conv8_2_relu_0_split_2
I0213 19:37:34.472393  6127 net.cpp:408] conv8_2_conv8_2_relu_0_split -> conv8_2_conv8_2_relu_0_split_3
I0213 19:37:34.472434  6127 net.cpp:150] Setting up conv8_2_conv8_2_relu_0_split
I0213 19:37:34.472445  6127 net.cpp:157] Top shape: 16 256 3 3 (36864)
I0213 19:37:34.472448  6127 net.cpp:157] Top shape: 16 256 3 3 (36864)
I0213 19:37:34.472450  6127 net.cpp:157] Top shape: 16 256 3 3 (36864)
I0213 19:37:34.472453  6127 net.cpp:157] Top shape: 16 256 3 3 (36864)
I0213 19:37:34.472455  6127 net.cpp:165] Memory required for data: 3764256832
I0213 19:37:34.472456  6127 layer_factory.hpp:77] Creating layer conv9_1
I0213 19:37:34.472465  6127 net.cpp:100] Creating Layer conv9_1
I0213 19:37:34.472467  6127 net.cpp:434] conv9_1 <- conv8_2_conv8_2_relu_0_split_0
I0213 19:37:34.472471  6127 net.cpp:408] conv9_1 -> conv9_1
I0213 19:37:34.473373  6127 net.cpp:150] Setting up conv9_1
I0213 19:37:34.473381  6127 net.cpp:157] Top shape: 16 128 3 3 (18432)
I0213 19:37:34.473383  6127 net.cpp:165] Memory required for data: 3764330560
I0213 19:37:34.473387  6127 layer_factory.hpp:77] Creating layer conv9_1_relu
I0213 19:37:34.473392  6127 net.cpp:100] Creating Layer conv9_1_relu
I0213 19:37:34.473394  6127 net.cpp:434] conv9_1_relu <- conv9_1
I0213 19:37:34.473397  6127 net.cpp:395] conv9_1_relu -> conv9_1 (in-place)
I0213 19:37:34.473501  6127 net.cpp:150] Setting up conv9_1_relu
I0213 19:37:34.473507  6127 net.cpp:157] Top shape: 16 128 3 3 (18432)
I0213 19:37:34.473510  6127 net.cpp:165] Memory required for data: 3764404288
I0213 19:37:34.473511  6127 layer_factory.hpp:77] Creating layer conv9_2
I0213 19:37:34.473516  6127 net.cpp:100] Creating Layer conv9_2
I0213 19:37:34.473520  6127 net.cpp:434] conv9_2 <- conv9_1
I0213 19:37:34.473523  6127 net.cpp:408] conv9_2 -> conv9_2
I0213 19:37:34.475814  6127 net.cpp:150] Setting up conv9_2
I0213 19:37:34.475823  6127 net.cpp:157] Top shape: 16 256 1 1 (4096)
I0213 19:37:34.475826  6127 net.cpp:165] Memory required for data: 3764420672
I0213 19:37:34.475829  6127 layer_factory.hpp:77] Creating layer conv9_2_relu
I0213 19:37:34.475834  6127 net.cpp:100] Creating Layer conv9_2_relu
I0213 19:37:34.475836  6127 net.cpp:434] conv9_2_relu <- conv9_2
I0213 19:37:34.475839  6127 net.cpp:395] conv9_2_relu -> conv9_2 (in-place)
I0213 19:37:34.475944  6127 net.cpp:150] Setting up conv9_2_relu
I0213 19:37:34.475949  6127 net.cpp:157] Top shape: 16 256 1 1 (4096)
I0213 19:37:34.475950  6127 net.cpp:165] Memory required for data: 3764437056
I0213 19:37:34.475952  6127 layer_factory.hpp:77] Creating layer conv9_2_conv9_2_relu_0_split
I0213 19:37:34.475957  6127 net.cpp:100] Creating Layer conv9_2_conv9_2_relu_0_split
I0213 19:37:34.475960  6127 net.cpp:434] conv9_2_conv9_2_relu_0_split <- conv9_2
I0213 19:37:34.475962  6127 net.cpp:408] conv9_2_conv9_2_relu_0_split -> conv9_2_conv9_2_relu_0_split_0
I0213 19:37:34.475967  6127 net.cpp:408] conv9_2_conv9_2_relu_0_split -> conv9_2_conv9_2_relu_0_split_1
I0213 19:37:34.475970  6127 net.cpp:408] conv9_2_conv9_2_relu_0_split -> conv9_2_conv9_2_relu_0_split_2
I0213 19:37:34.476003  6127 net.cpp:150] Setting up conv9_2_conv9_2_relu_0_split
I0213 19:37:34.476007  6127 net.cpp:157] Top shape: 16 256 1 1 (4096)
I0213 19:37:34.476011  6127 net.cpp:157] Top shape: 16 256 1 1 (4096)
I0213 19:37:34.476012  6127 net.cpp:157] Top shape: 16 256 1 1 (4096)
I0213 19:37:34.476014  6127 net.cpp:165] Memory required for data: 3764486208
I0213 19:37:34.476016  6127 layer_factory.hpp:77] Creating layer conv4_3_norm
I0213 19:37:34.476022  6127 net.cpp:100] Creating Layer conv4_3_norm
I0213 19:37:34.476023  6127 net.cpp:434] conv4_3_norm <- conv4_3_relu4_3_0_split_1
I0213 19:37:34.476027  6127 net.cpp:408] conv4_3_norm -> conv4_3_norm
I0213 19:37:34.476127  6127 net.cpp:150] Setting up conv4_3_norm
I0213 19:37:34.476132  6127 net.cpp:157] Top shape: 16 512 38 38 (11829248)
I0213 19:37:34.476135  6127 net.cpp:165] Memory required for data: 3811803200
I0213 19:37:34.476137  6127 layer_factory.hpp:77] Creating layer conv4_3_norm_conv4_3_norm_0_split
I0213 19:37:34.476141  6127 net.cpp:100] Creating Layer conv4_3_norm_conv4_3_norm_0_split
I0213 19:37:34.476143  6127 net.cpp:434] conv4_3_norm_conv4_3_norm_0_split <- conv4_3_norm
I0213 19:37:34.476146  6127 net.cpp:408] conv4_3_norm_conv4_3_norm_0_split -> conv4_3_norm_conv4_3_norm_0_split_0
I0213 19:37:34.476156  6127 net.cpp:408] conv4_3_norm_conv4_3_norm_0_split -> conv4_3_norm_conv4_3_norm_0_split_1
I0213 19:37:34.476161  6127 net.cpp:408] conv4_3_norm_conv4_3_norm_0_split -> conv4_3_norm_conv4_3_norm_0_split_2
I0213 19:37:34.476189  6127 net.cpp:150] Setting up conv4_3_norm_conv4_3_norm_0_split
I0213 19:37:34.476193  6127 net.cpp:157] Top shape: 16 512 38 38 (11829248)
I0213 19:37:34.476197  6127 net.cpp:157] Top shape: 16 512 38 38 (11829248)
I0213 19:37:34.476198  6127 net.cpp:157] Top shape: 16 512 38 38 (11829248)
I0213 19:37:34.476200  6127 net.cpp:165] Memory required for data: 3953754176
I0213 19:37:34.476202  6127 layer_factory.hpp:77] Creating layer conv4_3_norm_mbox_loc
I0213 19:37:34.476207  6127 net.cpp:100] Creating Layer conv4_3_norm_mbox_loc
I0213 19:37:34.476210  6127 net.cpp:434] conv4_3_norm_mbox_loc <- conv4_3_norm_conv4_3_norm_0_split_0
I0213 19:37:34.476213  6127 net.cpp:408] conv4_3_norm_mbox_loc -> conv4_3_norm_mbox_loc
I0213 19:37:34.477870  6127 net.cpp:150] Setting up conv4_3_norm_mbox_loc
I0213 19:37:34.477880  6127 net.cpp:157] Top shape: 16 16 38 38 (369664)
I0213 19:37:34.477883  6127 net.cpp:165] Memory required for data: 3955232832
I0213 19:37:34.477887  6127 layer_factory.hpp:77] Creating layer conv4_3_norm_mbox_loc_perm
I0213 19:37:34.477892  6127 net.cpp:100] Creating Layer conv4_3_norm_mbox_loc_perm
I0213 19:37:34.477895  6127 net.cpp:434] conv4_3_norm_mbox_loc_perm <- conv4_3_norm_mbox_loc
I0213 19:37:34.477898  6127 net.cpp:408] conv4_3_norm_mbox_loc_perm -> conv4_3_norm_mbox_loc_perm
I0213 19:37:34.477968  6127 net.cpp:150] Setting up conv4_3_norm_mbox_loc_perm
I0213 19:37:34.477972  6127 net.cpp:157] Top shape: 16 38 38 16 (369664)
I0213 19:37:34.477974  6127 net.cpp:165] Memory required for data: 3956711488
I0213 19:37:34.477977  6127 layer_factory.hpp:77] Creating layer conv4_3_norm_mbox_loc_flat
I0213 19:37:34.477982  6127 net.cpp:100] Creating Layer conv4_3_norm_mbox_loc_flat
I0213 19:37:34.477983  6127 net.cpp:434] conv4_3_norm_mbox_loc_flat <- conv4_3_norm_mbox_loc_perm
I0213 19:37:34.477987  6127 net.cpp:408] conv4_3_norm_mbox_loc_flat -> conv4_3_norm_mbox_loc_flat
I0213 19:37:34.478006  6127 net.cpp:150] Setting up conv4_3_norm_mbox_loc_flat
I0213 19:37:34.478013  6127 net.cpp:157] Top shape: 16 23104 (369664)
I0213 19:37:34.478015  6127 net.cpp:165] Memory required for data: 3958190144
I0213 19:37:34.478018  6127 layer_factory.hpp:77] Creating layer conv4_3_norm_mbox_conf
I0213 19:37:34.478027  6127 net.cpp:100] Creating Layer conv4_3_norm_mbox_conf
I0213 19:37:34.478030  6127 net.cpp:434] conv4_3_norm_mbox_conf <- conv4_3_norm_conv4_3_norm_0_split_1
I0213 19:37:34.478034  6127 net.cpp:408] conv4_3_norm_mbox_conf -> conv4_3_norm_mbox_conf
I0213 19:37:34.480846  6127 net.cpp:150] Setting up conv4_3_norm_mbox_conf
I0213 19:37:34.480865  6127 net.cpp:157] Top shape: 16 84 38 38 (1940736)
I0213 19:37:34.480870  6127 net.cpp:165] Memory required for data: 3965953088
I0213 19:37:34.480877  6127 layer_factory.hpp:77] Creating layer conv4_3_norm_mbox_conf_perm
I0213 19:37:34.480886  6127 net.cpp:100] Creating Layer conv4_3_norm_mbox_conf_perm
I0213 19:37:34.480891  6127 net.cpp:434] conv4_3_norm_mbox_conf_perm <- conv4_3_norm_mbox_conf
I0213 19:37:34.480898  6127 net.cpp:408] conv4_3_norm_mbox_conf_perm -> conv4_3_norm_mbox_conf_perm
I0213 19:37:34.480998  6127 net.cpp:150] Setting up conv4_3_norm_mbox_conf_perm
I0213 19:37:34.481004  6127 net.cpp:157] Top shape: 16 38 38 84 (1940736)
I0213 19:37:34.481007  6127 net.cpp:165] Memory required for data: 3973716032
I0213 19:37:34.481009  6127 layer_factory.hpp:77] Creating layer conv4_3_norm_mbox_conf_flat
I0213 19:37:34.481014  6127 net.cpp:100] Creating Layer conv4_3_norm_mbox_conf_flat
I0213 19:37:34.481016  6127 net.cpp:434] conv4_3_norm_mbox_conf_flat <- conv4_3_norm_mbox_conf_perm
I0213 19:37:34.481019  6127 net.cpp:408] conv4_3_norm_mbox_conf_flat -> conv4_3_norm_mbox_conf_flat
I0213 19:37:34.481034  6127 net.cpp:150] Setting up conv4_3_norm_mbox_conf_flat
I0213 19:37:34.481048  6127 net.cpp:157] Top shape: 16 121296 (1940736)
I0213 19:37:34.481051  6127 net.cpp:165] Memory required for data: 3981478976
I0213 19:37:34.481053  6127 layer_factory.hpp:77] Creating layer conv4_3_norm_mbox_priorbox
I0213 19:37:34.481058  6127 net.cpp:100] Creating Layer conv4_3_norm_mbox_priorbox
I0213 19:37:34.481061  6127 net.cpp:434] conv4_3_norm_mbox_priorbox <- conv4_3_norm_conv4_3_norm_0_split_2
I0213 19:37:34.481065  6127 net.cpp:434] conv4_3_norm_mbox_priorbox <- data_data_0_split_1
I0213 19:37:34.481070  6127 net.cpp:408] conv4_3_norm_mbox_priorbox -> conv4_3_norm_mbox_priorbox
I0213 19:37:34.481089  6127 net.cpp:150] Setting up conv4_3_norm_mbox_priorbox
I0213 19:37:34.481092  6127 net.cpp:157] Top shape: 1 2 23104 (46208)
I0213 19:37:34.481094  6127 net.cpp:165] Memory required for data: 3981663808
I0213 19:37:34.481096  6127 layer_factory.hpp:77] Creating layer fc7_mbox_loc
I0213 19:37:34.481103  6127 net.cpp:100] Creating Layer fc7_mbox_loc
I0213 19:37:34.481106  6127 net.cpp:434] fc7_mbox_loc <- fc7_relu7_0_split_1
I0213 19:37:34.481111  6127 net.cpp:408] fc7_mbox_loc -> fc7_mbox_loc
I0213 19:37:34.482985  6127 net.cpp:150] Setting up fc7_mbox_loc
I0213 19:37:34.482993  6127 net.cpp:157] Top shape: 16 24 19 19 (138624)
I0213 19:37:34.482997  6127 net.cpp:165] Memory required for data: 3982218304
I0213 19:37:34.483002  6127 layer_factory.hpp:77] Creating layer fc7_mbox_loc_perm
I0213 19:37:34.483007  6127 net.cpp:100] Creating Layer fc7_mbox_loc_perm
I0213 19:37:34.483011  6127 net.cpp:434] fc7_mbox_loc_perm <- fc7_mbox_loc
I0213 19:37:34.483014  6127 net.cpp:408] fc7_mbox_loc_perm -> fc7_mbox_loc_perm
I0213 19:37:34.483081  6127 net.cpp:150] Setting up fc7_mbox_loc_perm
I0213 19:37:34.483086  6127 net.cpp:157] Top shape: 16 19 19 24 (138624)
I0213 19:37:34.483089  6127 net.cpp:165] Memory required for data: 3982772800
I0213 19:37:34.483091  6127 layer_factory.hpp:77] Creating layer fc7_mbox_loc_flat
I0213 19:37:34.483095  6127 net.cpp:100] Creating Layer fc7_mbox_loc_flat
I0213 19:37:34.483098  6127 net.cpp:434] fc7_mbox_loc_flat <- fc7_mbox_loc_perm
I0213 19:37:34.483103  6127 net.cpp:408] fc7_mbox_loc_flat -> fc7_mbox_loc_flat
I0213 19:37:34.483119  6127 net.cpp:150] Setting up fc7_mbox_loc_flat
I0213 19:37:34.483124  6127 net.cpp:157] Top shape: 16 8664 (138624)
I0213 19:37:34.483125  6127 net.cpp:165] Memory required for data: 3983327296
I0213 19:37:34.483127  6127 layer_factory.hpp:77] Creating layer fc7_mbox_conf
I0213 19:37:34.483134  6127 net.cpp:100] Creating Layer fc7_mbox_conf
I0213 19:37:34.483136  6127 net.cpp:434] fc7_mbox_conf <- fc7_relu7_0_split_2
I0213 19:37:34.483141  6127 net.cpp:408] fc7_mbox_conf -> fc7_mbox_conf
I0213 19:37:34.488736  6127 net.cpp:150] Setting up fc7_mbox_conf
I0213 19:37:34.488752  6127 net.cpp:157] Top shape: 16 126 19 19 (727776)
I0213 19:37:34.488755  6127 net.cpp:165] Memory required for data: 3986238400
I0213 19:37:34.488760  6127 layer_factory.hpp:77] Creating layer fc7_mbox_conf_perm
I0213 19:37:34.488770  6127 net.cpp:100] Creating Layer fc7_mbox_conf_perm
I0213 19:37:34.488775  6127 net.cpp:434] fc7_mbox_conf_perm <- fc7_mbox_conf
I0213 19:37:34.488780  6127 net.cpp:408] fc7_mbox_conf_perm -> fc7_mbox_conf_perm
I0213 19:37:34.488852  6127 net.cpp:150] Setting up fc7_mbox_conf_perm
I0213 19:37:34.488855  6127 net.cpp:157] Top shape: 16 19 19 126 (727776)
I0213 19:37:34.488858  6127 net.cpp:165] Memory required for data: 3989149504
I0213 19:37:34.488860  6127 layer_factory.hpp:77] Creating layer fc7_mbox_conf_flat
I0213 19:37:34.488864  6127 net.cpp:100] Creating Layer fc7_mbox_conf_flat
I0213 19:37:34.488867  6127 net.cpp:434] fc7_mbox_conf_flat <- fc7_mbox_conf_perm
I0213 19:37:34.488872  6127 net.cpp:408] fc7_mbox_conf_flat -> fc7_mbox_conf_flat
I0213 19:37:34.488888  6127 net.cpp:150] Setting up fc7_mbox_conf_flat
I0213 19:37:34.488890  6127 net.cpp:157] Top shape: 16 45486 (727776)
I0213 19:37:34.488893  6127 net.cpp:165] Memory required for data: 3992060608
I0213 19:37:34.488896  6127 layer_factory.hpp:77] Creating layer fc7_mbox_priorbox
I0213 19:37:34.488909  6127 net.cpp:100] Creating Layer fc7_mbox_priorbox
I0213 19:37:34.488914  6127 net.cpp:434] fc7_mbox_priorbox <- fc7_relu7_0_split_3
I0213 19:37:34.488917  6127 net.cpp:434] fc7_mbox_priorbox <- data_data_0_split_2
I0213 19:37:34.488921  6127 net.cpp:408] fc7_mbox_priorbox -> fc7_mbox_priorbox
I0213 19:37:34.488940  6127 net.cpp:150] Setting up fc7_mbox_priorbox
I0213 19:37:34.488943  6127 net.cpp:157] Top shape: 1 2 8664 (17328)
I0213 19:37:34.488946  6127 net.cpp:165] Memory required for data: 3992129920
I0213 19:37:34.488948  6127 layer_factory.hpp:77] Creating layer conv6_2_mbox_loc
I0213 19:37:34.488955  6127 net.cpp:100] Creating Layer conv6_2_mbox_loc
I0213 19:37:34.488960  6127 net.cpp:434] conv6_2_mbox_loc <- conv6_2_conv6_2_relu_0_split_1
I0213 19:37:34.488965  6127 net.cpp:408] conv6_2_mbox_loc -> conv6_2_mbox_loc
I0213 19:37:34.490447  6127 net.cpp:150] Setting up conv6_2_mbox_loc
I0213 19:37:34.490454  6127 net.cpp:157] Top shape: 16 24 10 10 (38400)
I0213 19:37:34.490458  6127 net.cpp:165] Memory required for data: 3992283520
I0213 19:37:34.490461  6127 layer_factory.hpp:77] Creating layer conv6_2_mbox_loc_perm
I0213 19:37:34.490466  6127 net.cpp:100] Creating Layer conv6_2_mbox_loc_perm
I0213 19:37:34.490470  6127 net.cpp:434] conv6_2_mbox_loc_perm <- conv6_2_mbox_loc
I0213 19:37:34.490475  6127 net.cpp:408] conv6_2_mbox_loc_perm -> conv6_2_mbox_loc_perm
I0213 19:37:34.490548  6127 net.cpp:150] Setting up conv6_2_mbox_loc_perm
I0213 19:37:34.490552  6127 net.cpp:157] Top shape: 16 10 10 24 (38400)
I0213 19:37:34.490556  6127 net.cpp:165] Memory required for data: 3992437120
I0213 19:37:34.490557  6127 layer_factory.hpp:77] Creating layer conv6_2_mbox_loc_flat
I0213 19:37:34.490562  6127 net.cpp:100] Creating Layer conv6_2_mbox_loc_flat
I0213 19:37:34.490566  6127 net.cpp:434] conv6_2_mbox_loc_flat <- conv6_2_mbox_loc_perm
I0213 19:37:34.490568  6127 net.cpp:408] conv6_2_mbox_loc_flat -> conv6_2_mbox_loc_flat
I0213 19:37:34.490586  6127 net.cpp:150] Setting up conv6_2_mbox_loc_flat
I0213 19:37:34.490589  6127 net.cpp:157] Top shape: 16 2400 (38400)
I0213 19:37:34.490592  6127 net.cpp:165] Memory required for data: 3992590720
I0213 19:37:34.490594  6127 layer_factory.hpp:77] Creating layer conv6_2_mbox_conf
I0213 19:37:34.490599  6127 net.cpp:100] Creating Layer conv6_2_mbox_conf
I0213 19:37:34.490603  6127 net.cpp:434] conv6_2_mbox_conf <- conv6_2_conv6_2_relu_0_split_2
I0213 19:37:34.490607  6127 net.cpp:408] conv6_2_mbox_conf -> conv6_2_mbox_conf
I0213 19:37:34.494067  6127 net.cpp:150] Setting up conv6_2_mbox_conf
I0213 19:37:34.494078  6127 net.cpp:157] Top shape: 16 126 10 10 (201600)
I0213 19:37:34.494081  6127 net.cpp:165] Memory required for data: 3993397120
I0213 19:37:34.494086  6127 layer_factory.hpp:77] Creating layer conv6_2_mbox_conf_perm
I0213 19:37:34.494091  6127 net.cpp:100] Creating Layer conv6_2_mbox_conf_perm
I0213 19:37:34.494096  6127 net.cpp:434] conv6_2_mbox_conf_perm <- conv6_2_mbox_conf
I0213 19:37:34.494102  6127 net.cpp:408] conv6_2_mbox_conf_perm -> conv6_2_mbox_conf_perm
I0213 19:37:34.494175  6127 net.cpp:150] Setting up conv6_2_mbox_conf_perm
I0213 19:37:34.494180  6127 net.cpp:157] Top shape: 16 10 10 126 (201600)
I0213 19:37:34.494184  6127 net.cpp:165] Memory required for data: 3994203520
I0213 19:37:34.494185  6127 layer_factory.hpp:77] Creating layer conv6_2_mbox_conf_flat
I0213 19:37:34.494189  6127 net.cpp:100] Creating Layer conv6_2_mbox_conf_flat
I0213 19:37:34.494192  6127 net.cpp:434] conv6_2_mbox_conf_flat <- conv6_2_mbox_conf_perm
I0213 19:37:34.494196  6127 net.cpp:408] conv6_2_mbox_conf_flat -> conv6_2_mbox_conf_flat
I0213 19:37:34.494212  6127 net.cpp:150] Setting up conv6_2_mbox_conf_flat
I0213 19:37:34.494216  6127 net.cpp:157] Top shape: 16 12600 (201600)
I0213 19:37:34.494220  6127 net.cpp:165] Memory required for data: 3995009920
I0213 19:37:34.494221  6127 layer_factory.hpp:77] Creating layer conv6_2_mbox_priorbox
I0213 19:37:34.494225  6127 net.cpp:100] Creating Layer conv6_2_mbox_priorbox
I0213 19:37:34.494236  6127 net.cpp:434] conv6_2_mbox_priorbox <- conv6_2_conv6_2_relu_0_split_3
I0213 19:37:34.494240  6127 net.cpp:434] conv6_2_mbox_priorbox <- data_data_0_split_3
I0213 19:37:34.494243  6127 net.cpp:408] conv6_2_mbox_priorbox -> conv6_2_mbox_priorbox
I0213 19:37:34.494262  6127 net.cpp:150] Setting up conv6_2_mbox_priorbox
I0213 19:37:34.494267  6127 net.cpp:157] Top shape: 1 2 2400 (4800)
I0213 19:37:34.494269  6127 net.cpp:165] Memory required for data: 3995029120
I0213 19:37:34.494271  6127 layer_factory.hpp:77] Creating layer conv7_2_mbox_loc
I0213 19:37:34.494277  6127 net.cpp:100] Creating Layer conv7_2_mbox_loc
I0213 19:37:34.494280  6127 net.cpp:434] conv7_2_mbox_loc <- conv7_2_conv7_2_relu_0_split_1
I0213 19:37:34.494285  6127 net.cpp:408] conv7_2_mbox_loc -> conv7_2_mbox_loc
I0213 19:37:34.494982  6127 net.cpp:150] Setting up conv7_2_mbox_loc
I0213 19:37:34.494990  6127 net.cpp:157] Top shape: 16 24 5 5 (9600)
I0213 19:37:34.494993  6127 net.cpp:165] Memory required for data: 3995067520
I0213 19:37:34.494997  6127 layer_factory.hpp:77] Creating layer conv7_2_mbox_loc_perm
I0213 19:37:34.495002  6127 net.cpp:100] Creating Layer conv7_2_mbox_loc_perm
I0213 19:37:34.495005  6127 net.cpp:434] conv7_2_mbox_loc_perm <- conv7_2_mbox_loc
I0213 19:37:34.495009  6127 net.cpp:408] conv7_2_mbox_loc_perm -> conv7_2_mbox_loc_perm
I0213 19:37:34.495077  6127 net.cpp:150] Setting up conv7_2_mbox_loc_perm
I0213 19:37:34.495082  6127 net.cpp:157] Top shape: 16 5 5 24 (9600)
I0213 19:37:34.495085  6127 net.cpp:165] Memory required for data: 3995105920
I0213 19:37:34.495087  6127 layer_factory.hpp:77] Creating layer conv7_2_mbox_loc_flat
I0213 19:37:34.495090  6127 net.cpp:100] Creating Layer conv7_2_mbox_loc_flat
I0213 19:37:34.495093  6127 net.cpp:434] conv7_2_mbox_loc_flat <- conv7_2_mbox_loc_perm
I0213 19:37:34.495096  6127 net.cpp:408] conv7_2_mbox_loc_flat -> conv7_2_mbox_loc_flat
I0213 19:37:34.495111  6127 net.cpp:150] Setting up conv7_2_mbox_loc_flat
I0213 19:37:34.495115  6127 net.cpp:157] Top shape: 16 600 (9600)
I0213 19:37:34.495118  6127 net.cpp:165] Memory required for data: 3995144320
I0213 19:37:34.495121  6127 layer_factory.hpp:77] Creating layer conv7_2_mbox_conf
I0213 19:37:34.495126  6127 net.cpp:100] Creating Layer conv7_2_mbox_conf
I0213 19:37:34.495129  6127 net.cpp:434] conv7_2_mbox_conf <- conv7_2_conv7_2_relu_0_split_2
I0213 19:37:34.495133  6127 net.cpp:408] conv7_2_mbox_conf -> conv7_2_mbox_conf
I0213 19:37:34.497655  6127 net.cpp:150] Setting up conv7_2_mbox_conf
I0213 19:37:34.497664  6127 net.cpp:157] Top shape: 16 126 5 5 (50400)
I0213 19:37:34.497668  6127 net.cpp:165] Memory required for data: 3995345920
I0213 19:37:34.497673  6127 layer_factory.hpp:77] Creating layer conv7_2_mbox_conf_perm
I0213 19:37:34.497678  6127 net.cpp:100] Creating Layer conv7_2_mbox_conf_perm
I0213 19:37:34.497680  6127 net.cpp:434] conv7_2_mbox_conf_perm <- conv7_2_mbox_conf
I0213 19:37:34.497686  6127 net.cpp:408] conv7_2_mbox_conf_perm -> conv7_2_mbox_conf_perm
I0213 19:37:34.497756  6127 net.cpp:150] Setting up conv7_2_mbox_conf_perm
I0213 19:37:34.497761  6127 net.cpp:157] Top shape: 16 5 5 126 (50400)
I0213 19:37:34.497763  6127 net.cpp:165] Memory required for data: 3995547520
I0213 19:37:34.497766  6127 layer_factory.hpp:77] Creating layer conv7_2_mbox_conf_flat
I0213 19:37:34.497768  6127 net.cpp:100] Creating Layer conv7_2_mbox_conf_flat
I0213 19:37:34.497771  6127 net.cpp:434] conv7_2_mbox_conf_flat <- conv7_2_mbox_conf_perm
I0213 19:37:34.497773  6127 net.cpp:408] conv7_2_mbox_conf_flat -> conv7_2_mbox_conf_flat
I0213 19:37:34.497789  6127 net.cpp:150] Setting up conv7_2_mbox_conf_flat
I0213 19:37:34.497792  6127 net.cpp:157] Top shape: 16 3150 (50400)
I0213 19:37:34.497794  6127 net.cpp:165] Memory required for data: 3995749120
I0213 19:37:34.497797  6127 layer_factory.hpp:77] Creating layer conv7_2_mbox_priorbox
I0213 19:37:34.497800  6127 net.cpp:100] Creating Layer conv7_2_mbox_priorbox
I0213 19:37:34.497804  6127 net.cpp:434] conv7_2_mbox_priorbox <- conv7_2_conv7_2_relu_0_split_3
I0213 19:37:34.497807  6127 net.cpp:434] conv7_2_mbox_priorbox <- data_data_0_split_4
I0213 19:37:34.497819  6127 net.cpp:408] conv7_2_mbox_priorbox -> conv7_2_mbox_priorbox
I0213 19:37:34.497838  6127 net.cpp:150] Setting up conv7_2_mbox_priorbox
I0213 19:37:34.497843  6127 net.cpp:157] Top shape: 1 2 600 (1200)
I0213 19:37:34.497844  6127 net.cpp:165] Memory required for data: 3995753920
I0213 19:37:34.497848  6127 layer_factory.hpp:77] Creating layer conv8_2_mbox_loc
I0213 19:37:34.497853  6127 net.cpp:100] Creating Layer conv8_2_mbox_loc
I0213 19:37:34.497855  6127 net.cpp:434] conv8_2_mbox_loc <- conv8_2_conv8_2_relu_0_split_1
I0213 19:37:34.497861  6127 net.cpp:408] conv8_2_mbox_loc -> conv8_2_mbox_loc
I0213 19:37:34.499142  6127 net.cpp:150] Setting up conv8_2_mbox_loc
I0213 19:37:34.499151  6127 net.cpp:157] Top shape: 16 16 3 3 (2304)
I0213 19:37:34.499153  6127 net.cpp:165] Memory required for data: 3995763136
I0213 19:37:34.499166  6127 layer_factory.hpp:77] Creating layer conv8_2_mbox_loc_perm
I0213 19:37:34.499169  6127 net.cpp:100] Creating Layer conv8_2_mbox_loc_perm
I0213 19:37:34.499172  6127 net.cpp:434] conv8_2_mbox_loc_perm <- conv8_2_mbox_loc
I0213 19:37:34.499176  6127 net.cpp:408] conv8_2_mbox_loc_perm -> conv8_2_mbox_loc_perm
I0213 19:37:34.499249  6127 net.cpp:150] Setting up conv8_2_mbox_loc_perm
I0213 19:37:34.499254  6127 net.cpp:157] Top shape: 16 3 3 16 (2304)
I0213 19:37:34.499256  6127 net.cpp:165] Memory required for data: 3995772352
I0213 19:37:34.499258  6127 layer_factory.hpp:77] Creating layer conv8_2_mbox_loc_flat
I0213 19:37:34.499261  6127 net.cpp:100] Creating Layer conv8_2_mbox_loc_flat
I0213 19:37:34.499264  6127 net.cpp:434] conv8_2_mbox_loc_flat <- conv8_2_mbox_loc_perm
I0213 19:37:34.499267  6127 net.cpp:408] conv8_2_mbox_loc_flat -> conv8_2_mbox_loc_flat
I0213 19:37:34.499282  6127 net.cpp:150] Setting up conv8_2_mbox_loc_flat
I0213 19:37:34.499286  6127 net.cpp:157] Top shape: 16 144 (2304)
I0213 19:37:34.499289  6127 net.cpp:165] Memory required for data: 3995781568
I0213 19:37:34.499289  6127 layer_factory.hpp:77] Creating layer conv8_2_mbox_conf
I0213 19:37:34.499296  6127 net.cpp:100] Creating Layer conv8_2_mbox_conf
I0213 19:37:34.499300  6127 net.cpp:434] conv8_2_mbox_conf <- conv8_2_conv8_2_relu_0_split_2
I0213 19:37:34.499303  6127 net.cpp:408] conv8_2_mbox_conf -> conv8_2_mbox_conf
I0213 19:37:34.501040  6127 net.cpp:150] Setting up conv8_2_mbox_conf
I0213 19:37:34.501049  6127 net.cpp:157] Top shape: 16 84 3 3 (12096)
I0213 19:37:34.501051  6127 net.cpp:165] Memory required for data: 3995829952
I0213 19:37:34.501055  6127 layer_factory.hpp:77] Creating layer conv8_2_mbox_conf_perm
I0213 19:37:34.501060  6127 net.cpp:100] Creating Layer conv8_2_mbox_conf_perm
I0213 19:37:34.501062  6127 net.cpp:434] conv8_2_mbox_conf_perm <- conv8_2_mbox_conf
I0213 19:37:34.501067  6127 net.cpp:408] conv8_2_mbox_conf_perm -> conv8_2_mbox_conf_perm
I0213 19:37:34.501138  6127 net.cpp:150] Setting up conv8_2_mbox_conf_perm
I0213 19:37:34.501142  6127 net.cpp:157] Top shape: 16 3 3 84 (12096)
I0213 19:37:34.501143  6127 net.cpp:165] Memory required for data: 3995878336
I0213 19:37:34.501145  6127 layer_factory.hpp:77] Creating layer conv8_2_mbox_conf_flat
I0213 19:37:34.501149  6127 net.cpp:100] Creating Layer conv8_2_mbox_conf_flat
I0213 19:37:34.501152  6127 net.cpp:434] conv8_2_mbox_conf_flat <- conv8_2_mbox_conf_perm
I0213 19:37:34.501155  6127 net.cpp:408] conv8_2_mbox_conf_flat -> conv8_2_mbox_conf_flat
I0213 19:37:34.501170  6127 net.cpp:150] Setting up conv8_2_mbox_conf_flat
I0213 19:37:34.501174  6127 net.cpp:157] Top shape: 16 756 (12096)
I0213 19:37:34.501176  6127 net.cpp:165] Memory required for data: 3995926720
I0213 19:37:34.501178  6127 layer_factory.hpp:77] Creating layer conv8_2_mbox_priorbox
I0213 19:37:34.501183  6127 net.cpp:100] Creating Layer conv8_2_mbox_priorbox
I0213 19:37:34.501184  6127 net.cpp:434] conv8_2_mbox_priorbox <- conv8_2_conv8_2_relu_0_split_3
I0213 19:37:34.501188  6127 net.cpp:434] conv8_2_mbox_priorbox <- data_data_0_split_5
I0213 19:37:34.501191  6127 net.cpp:408] conv8_2_mbox_priorbox -> conv8_2_mbox_priorbox
I0213 19:37:34.501214  6127 net.cpp:150] Setting up conv8_2_mbox_priorbox
I0213 19:37:34.501217  6127 net.cpp:157] Top shape: 1 2 144 (288)
I0213 19:37:34.501219  6127 net.cpp:165] Memory required for data: 3995927872
I0213 19:37:34.501221  6127 layer_factory.hpp:77] Creating layer conv9_2_mbox_loc
I0213 19:37:34.501227  6127 net.cpp:100] Creating Layer conv9_2_mbox_loc
I0213 19:37:34.501230  6127 net.cpp:434] conv9_2_mbox_loc <- conv9_2_conv9_2_relu_0_split_0
I0213 19:37:34.501235  6127 net.cpp:408] conv9_2_mbox_loc -> conv9_2_mbox_loc
I0213 19:37:34.502193  6127 net.cpp:150] Setting up conv9_2_mbox_loc
I0213 19:37:34.502202  6127 net.cpp:157] Top shape: 16 16 1 1 (256)
I0213 19:37:34.502204  6127 net.cpp:165] Memory required for data: 3995928896
I0213 19:37:34.502208  6127 layer_factory.hpp:77] Creating layer conv9_2_mbox_loc_perm
I0213 19:37:34.502213  6127 net.cpp:100] Creating Layer conv9_2_mbox_loc_perm
I0213 19:37:34.502215  6127 net.cpp:434] conv9_2_mbox_loc_perm <- conv9_2_mbox_loc
I0213 19:37:34.502220  6127 net.cpp:408] conv9_2_mbox_loc_perm -> conv9_2_mbox_loc_perm
I0213 19:37:34.502288  6127 net.cpp:150] Setting up conv9_2_mbox_loc_perm
I0213 19:37:34.502291  6127 net.cpp:157] Top shape: 16 1 1 16 (256)
I0213 19:37:34.502293  6127 net.cpp:165] Memory required for data: 3995929920
I0213 19:37:34.502295  6127 layer_factory.hpp:77] Creating layer conv9_2_mbox_loc_flat
I0213 19:37:34.502300  6127 net.cpp:100] Creating Layer conv9_2_mbox_loc_flat
I0213 19:37:34.502302  6127 net.cpp:434] conv9_2_mbox_loc_flat <- conv9_2_mbox_loc_perm
I0213 19:37:34.502307  6127 net.cpp:408] conv9_2_mbox_loc_flat -> conv9_2_mbox_loc_flat
I0213 19:37:34.502322  6127 net.cpp:150] Setting up conv9_2_mbox_loc_flat
I0213 19:37:34.502326  6127 net.cpp:157] Top shape: 16 16 (256)
I0213 19:37:34.502327  6127 net.cpp:165] Memory required for data: 3995930944
I0213 19:37:34.502329  6127 layer_factory.hpp:77] Creating layer conv9_2_mbox_conf
I0213 19:37:34.502338  6127 net.cpp:100] Creating Layer conv9_2_mbox_conf
I0213 19:37:34.502341  6127 net.cpp:434] conv9_2_mbox_conf <- conv9_2_conv9_2_relu_0_split_1
I0213 19:37:34.502346  6127 net.cpp:408] conv9_2_mbox_conf -> conv9_2_mbox_conf
I0213 19:37:34.504559  6127 net.cpp:150] Setting up conv9_2_mbox_conf
I0213 19:37:34.504573  6127 net.cpp:157] Top shape: 16 84 1 1 (1344)
I0213 19:37:34.504575  6127 net.cpp:165] Memory required for data: 3995936320
I0213 19:37:34.504581  6127 layer_factory.hpp:77] Creating layer conv9_2_mbox_conf_perm
I0213 19:37:34.504588  6127 net.cpp:100] Creating Layer conv9_2_mbox_conf_perm
I0213 19:37:34.504592  6127 net.cpp:434] conv9_2_mbox_conf_perm <- conv9_2_mbox_conf
I0213 19:37:34.504598  6127 net.cpp:408] conv9_2_mbox_conf_perm -> conv9_2_mbox_conf_perm
I0213 19:37:34.504674  6127 net.cpp:150] Setting up conv9_2_mbox_conf_perm
I0213 19:37:34.504678  6127 net.cpp:157] Top shape: 16 1 1 84 (1344)
I0213 19:37:34.504680  6127 net.cpp:165] Memory required for data: 3995941696
I0213 19:37:34.504683  6127 layer_factory.hpp:77] Creating layer conv9_2_mbox_conf_flat
I0213 19:37:34.504688  6127 net.cpp:100] Creating Layer conv9_2_mbox_conf_flat
I0213 19:37:34.504689  6127 net.cpp:434] conv9_2_mbox_conf_flat <- conv9_2_mbox_conf_perm
I0213 19:37:34.504693  6127 net.cpp:408] conv9_2_mbox_conf_flat -> conv9_2_mbox_conf_flat
I0213 19:37:34.504709  6127 net.cpp:150] Setting up conv9_2_mbox_conf_flat
I0213 19:37:34.504712  6127 net.cpp:157] Top shape: 16 84 (1344)
I0213 19:37:34.504714  6127 net.cpp:165] Memory required for data: 3995947072
I0213 19:37:34.504716  6127 layer_factory.hpp:77] Creating layer conv9_2_mbox_priorbox
I0213 19:37:34.504721  6127 net.cpp:100] Creating Layer conv9_2_mbox_priorbox
I0213 19:37:34.504724  6127 net.cpp:434] conv9_2_mbox_priorbox <- conv9_2_conv9_2_relu_0_split_2
I0213 19:37:34.504726  6127 net.cpp:434] conv9_2_mbox_priorbox <- data_data_0_split_6
I0213 19:37:34.504730  6127 net.cpp:408] conv9_2_mbox_priorbox -> conv9_2_mbox_priorbox
I0213 19:37:34.504750  6127 net.cpp:150] Setting up conv9_2_mbox_priorbox
I0213 19:37:34.504765  6127 net.cpp:157] Top shape: 1 2 16 (32)
I0213 19:37:34.504766  6127 net.cpp:165] Memory required for data: 3995947200
I0213 19:37:34.504768  6127 layer_factory.hpp:77] Creating layer mbox_loc
I0213 19:37:34.504773  6127 net.cpp:100] Creating Layer mbox_loc
I0213 19:37:34.504776  6127 net.cpp:434] mbox_loc <- conv4_3_norm_mbox_loc_flat
I0213 19:37:34.504779  6127 net.cpp:434] mbox_loc <- fc7_mbox_loc_flat
I0213 19:37:34.504784  6127 net.cpp:434] mbox_loc <- conv6_2_mbox_loc_flat
I0213 19:37:34.504787  6127 net.cpp:434] mbox_loc <- conv7_2_mbox_loc_flat
I0213 19:37:34.504791  6127 net.cpp:434] mbox_loc <- conv8_2_mbox_loc_flat
I0213 19:37:34.504793  6127 net.cpp:434] mbox_loc <- conv9_2_mbox_loc_flat
I0213 19:37:34.504796  6127 net.cpp:408] mbox_loc -> mbox_loc
I0213 19:37:34.504817  6127 net.cpp:150] Setting up mbox_loc
I0213 19:37:34.504819  6127 net.cpp:157] Top shape: 16 34928 (558848)
I0213 19:37:34.504822  6127 net.cpp:165] Memory required for data: 3998182592
I0213 19:37:34.504823  6127 layer_factory.hpp:77] Creating layer mbox_conf
I0213 19:37:34.504827  6127 net.cpp:100] Creating Layer mbox_conf
I0213 19:37:34.504829  6127 net.cpp:434] mbox_conf <- conv4_3_norm_mbox_conf_flat
I0213 19:37:34.504832  6127 net.cpp:434] mbox_conf <- fc7_mbox_conf_flat
I0213 19:37:34.504835  6127 net.cpp:434] mbox_conf <- conv6_2_mbox_conf_flat
I0213 19:37:34.504838  6127 net.cpp:434] mbox_conf <- conv7_2_mbox_conf_flat
I0213 19:37:34.504840  6127 net.cpp:434] mbox_conf <- conv8_2_mbox_conf_flat
I0213 19:37:34.504843  6127 net.cpp:434] mbox_conf <- conv9_2_mbox_conf_flat
I0213 19:37:34.504847  6127 net.cpp:408] mbox_conf -> mbox_conf
I0213 19:37:34.504861  6127 net.cpp:150] Setting up mbox_conf
I0213 19:37:34.504865  6127 net.cpp:157] Top shape: 16 183372 (2933952)
I0213 19:37:34.504866  6127 net.cpp:165] Memory required for data: 4009918400
I0213 19:37:34.504868  6127 layer_factory.hpp:77] Creating layer mbox_priorbox
I0213 19:37:34.504873  6127 net.cpp:100] Creating Layer mbox_priorbox
I0213 19:37:34.504875  6127 net.cpp:434] mbox_priorbox <- conv4_3_norm_mbox_priorbox
I0213 19:37:34.504878  6127 net.cpp:434] mbox_priorbox <- fc7_mbox_priorbox
I0213 19:37:34.504880  6127 net.cpp:434] mbox_priorbox <- conv6_2_mbox_priorbox
I0213 19:37:34.504884  6127 net.cpp:434] mbox_priorbox <- conv7_2_mbox_priorbox
I0213 19:37:34.504885  6127 net.cpp:434] mbox_priorbox <- conv8_2_mbox_priorbox
I0213 19:37:34.504887  6127 net.cpp:434] mbox_priorbox <- conv9_2_mbox_priorbox
I0213 19:37:34.504890  6127 net.cpp:408] mbox_priorbox -> mbox_priorbox
I0213 19:37:34.504905  6127 net.cpp:150] Setting up mbox_priorbox
I0213 19:37:34.504909  6127 net.cpp:157] Top shape: 1 2 34928 (69856)
I0213 19:37:34.504910  6127 net.cpp:165] Memory required for data: 4010197824
I0213 19:37:34.504912  6127 layer_factory.hpp:77] Creating layer mbox_loss
I0213 19:37:34.504920  6127 net.cpp:100] Creating Layer mbox_loss
I0213 19:37:34.504921  6127 net.cpp:434] mbox_loss <- mbox_loc
I0213 19:37:34.504925  6127 net.cpp:434] mbox_loss <- mbox_conf
I0213 19:37:34.504926  6127 net.cpp:434] mbox_loss <- mbox_priorbox
…
state {
  phase: TEST
}
layer {
  name: "data"
  type: "AnnotatedData"
  top: "data"
  top: "label"
  include {
    phase: TEST
  }
  transform_param {
    mean_value: 104
    mean_value: 117
    mean_value: 123
    resize_param {
      prob: 1
      resize_mode: WARP
      height: 300
      width: 300
      interp_mode: LINEAR
    }
  }
  data_param {
    source: "examples/VOC0712/VOC0712_test_lmdb"
    batch_size: 8
    backend: LMDB
  }
  annotated_data_param {
    batch_sampler {
    }
    label_map_file: "data/VOC0712/labelmap_voc.prototxt"
  }
}
layer {
  name: "conv1_1"
  type: "Convolution"
  bottom: "data"
  top: "conv1_1"
  param {
    lr_mult: 1
    decay_mult: 1
  }
  param {
    lr_mult: 2
    decay_mult: 0
  }
  convolution_param {
    num_output: 64
    pad: 1
    kernel_size: 3
    weight_filler {
      type: "xavier"
    }
    bias_filler {
      type: "constant"
      value: 0
    }
  }
}
layer {
  name: "relu1_1"
  type: "ReLU"
  bottom: "conv1_1"
  top: "conv1_1"
}
layer {
  name: "conv1_2"
  type: "Convolution"
  bottom: "conv1_1"
  top: "conv1_2"
  param {
    lr_mult: 1
    decay_mult: 1
  }
  param {
    lr_mult: 2
    decay_mult: 0
  }
  convolution_param {
    num_output: 64
    pad: 1
    kernel_size: 3
    weight_filler {
      type: "xavier"
    }
    bias_filler {
      type: "constant"
      value: 0
    }
  }
}
layer {
  name: "relu1_2"
  type: "ReLU"
  bottom: "conv1_2"
  top: "conv1_2"
}
layer {
  name: "pool1"
  type: "Pooling"
  bottom: "conv1_2"
  top: "pool1"
  pooling_param {
    pool: MAX
    kernel_size: 2
    stride: 2
  }
}
layer {
  name: "conv2_1"
  type: "Convolution"
  bottom: "pool1"
  top: "conv2_1"
  param {
    lr_mult: 1
    decay_mult: 1
  }
  param {
    lr_mult: 2
    decay_mult: 0
  }
  convolution_param {
    num_output: 128
    pad: 1
    kernel_size: 3
    weight_filler {
      type: "xavier"
    }
    bias_filler {
      type: "constant"
      value: 0
    }
  }
}
layer {
  name: "relu2_1"
  type: "ReLU"
  bottom: "conv2_1"
  top: "conv2_1"
}
layer {
  name: "conv2_2"
  type: "Convolution"
  bottom: "conv2_1"
  top: "conv2_2"
  param {
    lr_mult: 1
    decay_mult: 1
  }
  param {
    lr_mult: 2
    decay_mult: 0
  }
  convolution_param {
    num_output: 128
    pad: 1
    kernel_size: 3
    weight_filler {
      type: "xavier"
    }
    bias_filler {
      type: "constant"
      value: 0
    }
  }
}
layer {
  name: "relu2_2"
  type: "ReLU"
  bottom: "conv2_2"
  top: "conv2_2"
}
layer {
  name: "pool2"
  type: "Pooling"
  bottom: "conv2_2"
  top: "pool2"
  pooling_param {
    pool: MAX
    kernel_size: 2
    stride: 2
  }
}
layer {
  name: "conv3_1"
  type: "Convolution"
  bottom: "pool2"
  top: "conv3_1"
  param {
    lr_mult: 1
    decay_mult: 1
  }
  param {
    lr_mult: 2
    decay_mult: 0
  }
  convolution_param {
    num_output: 256
    pad: 1
    kernel_size: 3
    weight_filler {
      type: "xavier"
    }
    bias_filler {
      type: "constant"
      value: 0
    }
  }
}
layer {
  name: "relu3_1"
  type: "ReLU"
  bottom: "conv3_1"
  top: "conv3_1"
}
layer {
  name: "conv3_2"
  type: "Convolution"
  bottom: "conv3_1"
  top: "conv3_2"
  param {
    lr_mult: 1
    decay_mult: 1
  }
  param {
    lr_mult: 2
    decay_mult: 0
  }
  convolution_param {
    num_output: 256
    pad: 1
    kernel_size: 3
    weight_filler {
      type: "xavier"
    }
    bias_filler {
      type: "constant"
      value: 0
    }
  }
}
layer {
  name: "relu3_2"
  type: "ReLU"
  bottom: "conv3_2"
  top: "conv3_2"
}
layer {
  name: "conv3_3"
  type: "Convolution"
  bottom: "conv3_2"
  top: "conv3_3"
  param {
    lr_mult: 1
    decay_mult: 1
  }
  param {
    lr_mult: 2
    decay_mult: 0
  }
  convolution_param {
    num_output: 256
    pad: 1
    kernel_size: 3
    weight_filler {
      type: "xavier"
    }
    bias_filler {
      type: "constant"
      value: 0
    }
  }
}
layer {
  name: "relu3_3"
  type: "ReLU"
  bottom: "conv3_3"
  top: "conv3_3"
}
layer {
  name: "pool3"
  type: "Pooling"
  bottom: "conv3_3"
  top: "pool3"
  pooling_param {
    pool: MAX
    kernel_size: 2
    stride: 2
  }
}
layer {
  name: "conv4_1"
  type: "Convolution"
  bottom: "pool3"
  top: "conv4_1"
  param {
    lr_mult: 1
    decay_mult: 1
  }
  param {
    lr_mult: 2
    decay_mult: 0
  }
  convolution_param {
    num_output: 512
    pad: 1
    kernel_size: 3
    weight_filler {
      type: "xavier"
    }
    bias_filler {
      type: "constant"
      value: 0
    }
  }
}
layer {
  name: "relu4_1"
  type: "ReLU"
  bottom: "conv4_1"
  top: "conv4_1"
}
layer {
  name: "conv4_2"
  type: "Convolution"
  bottom: "conv4_1"
  top: "conv4_2"
  param {
    lr_mult: 1
    decay_mult: 1
  }
  param {
    lr_mult: 2
    decay_mult: 0
  }
  convolution_param {
    num_output: 512
    pad: 1
    kernel_size: 3
    weight_filler {
      type: "xavier"
    }
    bias_filler {
      type: "constant"
      value: 0
    }
  }
}
layer {
  name: "relu4_2"
  type: "ReLU"
  bottom: "conv4_2"
  top: "conv4_2"
}
layer {
  name: "conv4_3"
  type: "Convolution"
  bottom: "conv4_2"
  top: "conv4_3"
  param {
    lr_mult: 1
    decay_mult: 1
  }
  param {
    lr_mult: 2
    decay_mult: 0
  }
  convolution_param {
    num_output: 512
    pad: 1
    kernel_size: 3
    weight_filler {
      type: "xavier"
    }
    bias_filler {
      type: "constant"
      value: 0
    }
  }
}
layer {
  name: "relu4_3"
  type: "ReLU"
  bottom: "conv4_3"
  top: "conv4_3"
}
layer {
  name: "pool4"
  type: "Pooling"
  bottom: "conv4_3"
  top: "pool4"
  pooling_param {
    pool: MAX
    kernel_size: 2
    stride: 2
  }
}
layer {
  name: "conv5_1"
  type: "Convolution"
  bottom: "pool4"
  top: "conv5_1"
  param {
    lr_mult: 1
    decay_mult: 1
  }
  param {
    lr_mult: 2
    decay_mult: 0
  }
  convolution_param {
    num_output: 512
    pad: 1
    kernel_size: 3
    weight_filler {
      type: "xavier"
    }
    bias_filler {
      type: "constant"
      value: 0
    }
    dilation: 1
  }
}
layer {
  name: "relu5_1"
  type: "ReLU"
  bottom: "conv5_1"
  top: "conv5_1"
}
layer {
  name: "conv5_2"
  type: "Convolution"
  bottom: "conv5_1"
  top: "conv5_2"
  param {
    lr_mult: 1
    decay_mult: 1
  }
  param {
    lr_mult: 2
    decay_mult: 0
  }
  convolution_param {
    num_output: 512
    pad: 1
    kernel_size: 3
    weight_filler {
      type: "xavier"
    }
    bias_filler {
      type: "constant"
      value: 0
    }
    dilation: 1
  }
}
layer {
  name: "relu5_2"
  type: "ReLU"
  bottom: "conv5_2"
  top: "conv5_2"
}
layer {
  name: "conv5_3"
  type: "Convolution"
  bottom: "conv5_2"
  top: "conv5_3"
  param {
    lr_mult: 1
    decay_mult: 1
  }
  param {
    lr_mult: 2
    decay_mult: 0
  }
  convolution_param {
    num_output: 512
    pad: 1
    kernel_size: 3
    weight_filler {
      type: "xavier"
    }
    bias_filler {
      type: "constant"
      value: 0
    }
    dilation: 1
  }
}
layer {
  name: "relu5_3"
  type: "ReLU"
  bottom: "conv5_3"
  top: "conv5_3"
}
layer {
  name: "pool5"
  type: "Pooling"
  bottom: "conv5_3"
  top: "pool5"
  pooling_param {
    pool: MAX
    kernel_size: 3
    stride: 1
    pad: 1
  }
}
layer {
  name: "fc6"
  type: "Convolution"
  bottom: "pool5"
  top: "fc6"
  param {
    lr_mult: 1
    decay_mult: 1
  }
  param {
    lr_mult: 2
    decay_mult: 0
  }
  convolution_param {
    num_output: 1024
    pad: 6
    kernel_size: 3
    weight_filler {
      type: "xavier"
    }
    bias_filler {
      type: "constant"
      value: 0
    }
    dilation: 6
  }
}
layer {
  name: "relu6"
  type: "ReLU"
  bottom: "fc6"
  top: "fc6"
}
layer {
  name: "fc7"
  type: "Convolution"
  bottom: "fc6"
  top: "fc7"
  param {
    lr_mult: 1
    decay_mult: 1
  }
  param {
    lr_mult: 2
    decay_mult: 0
  }
  convolution_param {
    num_output: 1024
    kernel_size: 1
    weight_filler {
      type: "xavier"
    }
    bias_filler {
      type: "constant"
      value: 0
    }
  }
}
layer {
  name: "relu7"
  type: "ReLU"
  bottom: "fc7"
  top: "fc7"
}
layer {
  name: "conv6_1"
  type: "Convolution"
  bottom: "fc7"
  top: "conv6_1"
  param {
    lr_mult: 1
    decay_mult: 1
  }
  param {
    lr_mult: 2
    decay_mult: 0
  }
  convolution_param {
    num_output: 256
    pad: 0
    kernel_size: 1
    stride: 1
    weight_filler {
      type: "xavier"
    }
    bias_filler {
      type: "constant"
      value: 0
    }
  }
}
layer {
  name: "conv6_1_relu"
  type: "ReLU"
  bottom: "conv6_1"
  top: "conv6_1"
}
layer {
  name: "conv6_2"
  type: "Convolution"
  bottom: "conv6_1"
  top: "conv6_2"
  param {
    lr_mult: 1
    decay_mult: 1
  }
  param {
    lr_mult: 2
    decay_mult: 0
  }
  convolution_param {
    num_output: 512
    pad: 1
    kernel_size: 3
    stride: 2
    weight_filler {
      type: "xavier"
    }
    bias_filler {
      type: "constant"
      value: 0
    }
  }
}
layer {
  name: "conv6_2_relu"
  type: "ReLU"
  bottom: "conv6_2"
  top: "conv6_2"
}
layer {
  name: "conv7_1"
  type: "Convolution"
  bottom: "conv6_2"
  top: "conv7_1"
  param {
    lr_mult: 1
    decay_mult: 1
  }
  param {
    lr_mult: 2
    decay_mult: 0
  }
  convolution_param {
    num_output: 128
    pad: 0
    kernel_size: 1
    stride: 1
    weight_filler {
      type: "xavier"
    }
    bias_filler {
      type: "constant"
      value: 0
    }
  }
}
layer {
  name: "conv7_1_relu"
  type: "ReLU"
  bottom: "conv7_1"
  top: "conv7_1"
}
layer {
  name: "conv7_2"
  type: "Convolution"
  bottom: "conv7_1"
  top: "conv7_2"
  param {
    lr_mult: 1
    decay_mult: 1
  }
  param {
    lr_mult: 2
    decay_mult: 0
  }
  convolution_param {
    num_output: 256
    pad: 1
    kernel_size: 3
    stride: 2
    weight_filler {
      type: "xavier"
    }
    bias_filler {
      type: "constant"
      value: 0
    }
  }
}
layer {
  name: "conv7_2_relu"
  type: "ReLU"
  bottom: "conv7_2"
  top: "conv7_2"
}
layer {
  name: "conv8_1"
  type: "Convolution"
  bottom: "conv7_2"
  top: "conv8_1"
  param {
    lr_mult: 1
    decay_mult: 1
  }
  param {
    lr_mult: 2
    decay_mult: 0
  }
  convolution_param {
    num_output: 128
    pad: 0
    kernel_size: 1
    stride: 1
    weight_filler {
      type: "xavier"
    }
    bias_filler {
      type: "constant"
      value: 0
    }
  }
}
layer {
  name: "conv8_1_relu"
  type: "ReLU"
  bottom: "conv8_1"
  top: "conv8_1"
}
layer {
  name: "conv8_2"
  type: "Convolution"
  bottom: "conv8_1"
  top: "conv8_2"
  param {
    lr_mult: 1
    decay_mult: 1
  }
  param {
    lr_mult: 2
    decay_mult: 0
  }
  convolution_param {
    num_output: 256
    pad: 0
    kernel_size: 3
    stride: 1
    weight_filler {
      type: "xavier"
    }
    bias_filler {
      type: "constant"
      value: 0
    }
  }
}
layer {
  name: "conv8_2_relu"
  type: "ReLU"
  bottom: "conv8_2"
  top: "conv8_2"
}
layer {
  name: "conv9_1"
  type: "Convolution"
  bottom: "conv8_2"
  top: "conv9_1"
  param {
    lr_mult: 1
    decay_mult: 1
  }
  param {
    lr_mult: 2
    decay_mult: 0
  }
  convolution_param {
    num_output: 128
    pad: 0
    kernel_size: 1
    stride: 1
    weight_filler {
      type: "xavier"
    }
    bias_filler {
      type: "constant"
      value: 0
    }
  }
}
layer {
  name: "conv9_1_relu"
  type: "ReLU"
  bottom: "conv9_1"
  top: "conv9_1"
}
layer {
  name: "conv9_2"
  type: "Convolution"
  bottom: "conv9_1"
  top: "conv9_2"
  param {
    lr_mult: 1
    decay_mult: 1
  }
  param {
    lr_mult: 2
    decay_mult: 0
  }
  convolution_param {
    num_output: 256
    pad: 0
    kernel_size: 3
    stride: 1
    weight_filler {
      type: "xavier"
    }
    bias_filler {
      type: "constant"
      value: 0
    }
  }
}
layer {
  name: "conv9_2_relu"
  type: "ReLU"
  bottom: "conv9_2"
  top: "conv9_2"
}
layer {
  name: "conv4_3_norm"
  type: "Normalize"
  bottom: "conv4_3"
  top: "conv4_3_norm"
  norm_param {
    across_spatial: false
    scale_filler {
      type: "constant"
      value: 20
    }
    channel_shared: false
  }
}
layer {
  name: "conv4_3_norm_mbox_loc"
  type: "Convolution"
  bottom: "conv4_3_norm"
  top: "conv4_3_norm_mbox_loc"
  param {
    lr_mult: 1
    decay_mult: 1
  }
  param {
    lr_mult: 2
    decay_mult: 0
  }
  convolution_param {
    num_output: 16
    pad: 1
    kernel_size: 3
    stride: 1
    weight_filler {
      type: "xavier"
    }
    bias_filler {
      type: "constant"
      value: 0
    }
  }
}
layer {
  name: "conv4_3_norm_mbox_loc_perm"
  type: "Permute"
  bottom: "conv4_3_norm_mbox_loc"
  top: "conv4_3_norm_mbox_loc_perm"
  permute_param {
    order: 0
    order: 2
    order: 3
    order: 1
  }
}
layer {
  name: "conv4_3_norm_mbox_loc_flat"
  type: "Flatten"
  bottom: "conv4_3_norm_mbox_loc_perm"
  top: "conv4_3_norm_mbox_loc_flat"
  flatten_param {
    axis: 1
  }
}
layer {
  name: "conv4_3_norm_mbox_conf"
  type: "Convolution"
  bottom: "conv4_3_norm"
  top: "conv4_3_norm_mbox_conf"
  param {
    lr_mult: 1
    decay_mult: 1
  }
  param {
    lr_mult: 2
    decay_mult: 0
  }
  convolution_param {
    num_output: 84
    pad: 1
    kernel_size: 3
    stride: 1
    weight_filler {
      type: "xavier"
    }
    bias_filler {
      type: "constant"
      value: 0
    }
  }
}
layer {
  name: "conv4_3_norm_mbox_conf_perm"
  type: "Permute"
  bottom: "conv4_3_norm_mbox_conf"
  top: "conv4_3_norm_mbox_conf_perm"
  permute_param {
    order: 0
    order: 2
    order: 3
    order: 1
  }
}
layer {
  name: "conv4_3_norm_mbox_conf_flat"
  type: "Flatten"
  bottom: "conv4_3_norm_mbox_conf_perm"
  top: "conv4_3_norm_mbox_conf_flat"
  flatten_param {
    axis: 1
  }
}
layer {
  name: "conv4_3_norm_mbox_priorbox"
  type: "PriorBox"
  bottom: "conv4_3_norm"
  bottom: "data"
  top: "conv4_3_norm_mbox_priorbox"
  prior_box_param {
    min_size: 30
    max_size: 60
    aspect_ratio: 2
    flip: true
    clip: false
    variance: 0.1
    variance: 0.1
    variance: 0.2
    variance: 0.2
    step: 8
    offset: 0.5
  }
}
layer {
  name: "fc7_mbox_loc"
  type: "Convolution"
  bottom: "fc7"
  top: "fc7_mbox_loc"
  param {
    lr_mult: 1
    decay_mult: 1
  }
  param {
    lr_mult: 2
    decay_mult: 0
  }
  convolution_param {
    num_output: 24
    pad: 1
    kernel_size: 3
    stride: 1
    weight_filler {
      type: "xavier"
    }
    bias_filler {
      type: "constant"
      value: 0
    }
  }
}
layer {
  name: "fc7_mbox_loc_perm"
  type: "Permute"
  bottom: "fc7_mbox_loc"
  top: "fc7_mbox_loc_perm"
  permute_param {
    order: 0
    order: 2
    order: 3
    order: 1
  }
}
layer {
  name: "fc7_mbox_loc_flat"
  type: "Flatten"
  bottom: "fc7_mbox_loc_perm"
  top: "fc7_mbox_loc_flat"
  flatten_param {
    axis: 1
  }
}
layer {
  name: "fc7_mbox_conf"
  type: "Convolution"
  bottom: "fc7"
  top: "fc7_mbox_conf"
  param {
    lr_mult: 1
    decay_mult: 1
  }
  param {
    lr_mult: 2
    decay_mult: 0
  }
  convolution_param {
    num_output: 126
    pad: 1
    kernel_size: 3
    stride: 1
    weight_filler {
      type: "xavier"
    }
    bias_filler {
      type: "constant"
      value: 0
    }
  }
}
layer {
  name: "fc7_mbox_conf_perm"
  type: "Permute"
  bottom: "fc7_mbox_conf"
  top: "fc7_mbox_conf_perm"
  permute_param {
    order: 0
    order: 2
    order: 3
    order: 1
  }
}
layer {
  name: "fc7_mbox_conf_flat"
  type: "Flatten"
  bottom: "fc7_mbox_conf_perm"
  top: "fc7_mbox_conf_flat"
  flatten_param {
    axis: 1
  }
}
layer {
  name: "fc7_mbox_priorbox"
  type: "PriorBox"
  bottom: "fc7"
  bottom: "data"
  top: "fc7_mbox_priorbox"
  prior_box_param {
    min_size: 60
    max_size: 111
    aspect_ratio: 2
    aspect_ratio: 3
    flip: true
    clip: false
    variance: 0.1
    variance: 0.1
    variance: 0.2
    variance: 0.2
    step: 16
    offset: 0.5
  }
}
layer {
  name: "conv6_2_mbox_loc"
  type: "Convolution"
  bottom: "conv6_2"
  top: "conv6_2_mbox_loc"
  param {
    lr_mult: 1
    decay_mult: 1
  }
  param {
    lr_mult: 2
    decay_mult: 0
  }
  convolution_param {
    num_output: 24
    pad: 1
    kernel_size: 3
    stride: 1
    weight_filler {
      type: "xavier"
    }
    bias_filler {
      type: "constant"
      value: 0
    }
  }
}
layer {
  name: "conv6_2_mbox_loc_perm"
  type: "Permute"
  bottom: "conv6_2_mbox_loc"
  top: "conv6_2_mbox_loc_perm"
  permute_param {
    order: 0
    order: 2
    order: 3
    order: 1
  }
}
layer {
  name: "conv6_2_mbox_loc_flat"
  type: "Flatten"
  bottom: "conv6_2_mbox_loc_perm"
  top: "conv6_2_mbox_loc_flat"
  flatten_param {
    axis: 1
  }
}
layer {
  name: "conv6_2_mbox_conf"
  type: "Convolution"
  bottom: "conv6_2"
  top: "conv6_2_mbox_conf"
  param {
    lr_mult: 1
    decay_mult: 1
  }
  param {
    lr_mult: 2
    decay_mult: 0
  }
  convolution_param {
    num_output: 126
    pad: 1
    kernel_size: 3
    stride: 1
    weight_filler {
      type: "xavier"
    }
    bias_filler {
      type: "constant"
      value: 0
    }
  }
}
layer {
  name: "conv6_2_mbox_conf_perm"
  type: "Permute"
  bottom: "conv6_2_mbox_conf"
  top: "conv6_2_mbox_conf_perm"
  permute_param {
    order: 0
    order: 2
    order: 3
    order: 1
  }
}
layer {
  name: "conv6_2_mbox_conf_flat"
  type: "Flatten"
  bottom: "conv6_2_mbox_conf_perm"
  top: "conv6_2_mbox_conf_flat"
  flatten_param {
    axis: 1
  }
}
layer {
  name: "conv6_2_mbox_priorbox"
  type: "PriorBox"
  bottom: "conv6_2"
  bottom: "data"
  top: "conv6_2_mbox_priorbox"
  prior_box_param {
    min_size: 111
    max_size: 162
    aspect_ratio: 2
    aspect_ratio: 3
    flip: true
    clip: false
    variance: 0.1
    variance: 0.1
    variance: 0.2
    variance: 0.2
    step: 32
    offset: 0.5
  }
}
layer {
  name: "conv7_2_mbox_loc"
  type: "Convolution"
  bottom: "conv7_2"
  top: "conv7_2_mbox_loc"
  param {
    lr_mult: 1
    decay_mult: 1
  }
  param {
    lr_mult: 2
    decay_mult: 0
  }
  convolution_param {
    num_output: 24
    pad: 1
    kernel_size: 3
    stride: 1
    weight_filler {
      type: "xavier"
    }
    bias_filler {
      type: "constant"
      value: 0
    }
  }
}
layer {
  name: "conv7_2_mbox_loc_perm"
  type: "Permute"
  bottom: "conv7_2_mbox_loc"
  top: "conv7_2_mbox_loc_perm"
  permute_param {
    order: 0
    order: 2
    order: 3
    order: 1
  }
}
layer {
  name: "conv7_2_mbox_loc_flat"
  type: "Flatten"
  bottom: "conv7_2_mbox_loc_perm"
  top: "conv7_2_mbox_loc_flat"
  flatten_param {
    axis: 1
  }
}
layer {
  name: "conv7_2_mbox_conf"
  type: "Convolution"
  bottom: "conv7_2"
  top: "conv7_2_mbox_conf"
  param {
    lr_mult: 1
    decay_mult: 1
  }
  param {
    lr_mult: 2
    decay_mult: 0
  }
  convolution_param {
    num_output: 126
    pad: 1
    kernel_size: 3
    stride: 1
    weight_filler {
      type: "xavier"
    }
    bias_filler {
      type: "constant"
      value: 0
    }
  }
}
layer {
  name: "conv7_2_mbox_conf_perm"
  type: "Permute"
  bottom: "conv7_2_mbox_conf"
  top: "conv7_2_mbox_conf_perm"
  permute_param {
    order: 0
    order: 2
    order: 3
    order: 1
  }
}
layer {
  name: "conv7_2_mbox_conf_flat"
  type: "Flatten"
  bottom: "conv7_2_mbox_conf_perm"
  top: "conv7_2_mbox_conf_flat"
  flatten_param {
    axis: 1
  }
}
layer {
  name: "conv7_2_mbox_priorbox"
  type: "PriorBox"
  bottom: "conv7_2"
  bottom: "data"
  top: "conv7_2_mbox_priorbox"
  prior_box_param {
    min_size: 162
    max_size: 213
    aspect_ratio: 2
    aspect_ratio: 3
    flip: true
    clip: false
    variance: 0.1
    variance: 0.1
    variance: 0.2
    variance: 0.2
    step: 64
    offset: 0.5
  }
}
layer {
  name: "conv8_2_mbox_loc"
  type: "Convolution"
  bottom: "conv8_2"
  top: "conv8_2_mbox_loc"
  param {
    lr_mult: 1
    decay_mult: 1
  }
  param {
    lr_mult: 2
    decay_mult: 0
  }
  convolution_param {
    num_output: 16
    pad: 1
    kernel_size: 3
    stride: 1
    weight_filler {
      type: "xavier"
    }
    bias_filler {
      type: "constant"
      value: 0
    }
  }
}
layer {
  name: "conv8_2_mbox_loc_perm"
  type: "Permute"
  bottom: "conv8_2_mbox_loc"
  top: "conv8_2_mbox_loc_perm"
  permute_param {
    order: 0
    order: 2
    order: 3
    order: 1
  }
}
layer {
  name: "conv8_2_mbox_loc_flat"
  type: "Flatten"
  bottom: "conv8_2_mbox_loc_perm"
  top: "conv8_2_mbox_loc_flat"
  flatten_param {
    axis: 1
  }
}
layer {
  name: "conv8_2_mbox_conf"
  type: "Convolution"
  bottom: "conv8_2"
  top: "conv8_2_mbox_conf"
  param {
    lr_mult: 1
    decay_mult: 1
  }
  param {
    lr_mult: 2
    decay_mult: 0
  }
  convolution_param {
    num_output: 84
    pad: 1
    kernel_size: 3
    stride: 1
    weight_filler {
      type: "xavier"
    }
    bias_filler {
      type: "constant"
      value: 0
    }
  }
}
layer {
  name: "conv8_2_mbox_conf_perm"
  type: "Permute"
  bottom: "conv8_2_mbox_conf"
  top: "conv8_2_mbox_conf_perm"
  permute_param {
    order: 0
    order: 2
    order: 3
    order: 1
  }
}
layer {
  name: "conv8_2_mbox_conf_flat"
  type: "Flatten"
  bottom: "conv8_2_mbox_conf_perm"
  top: "conv8_2_mbox_conf_flat"
  flatten_param {
    axis: 1
  }
}
layer {
  name: "conv8_2_mbox_priorbox"
  type: "PriorBox"
  bottom: "conv8_2"
  bottom: "data"
  top: "conv8_2_mbox_priorbox"
  prior_box_param {
    min_size: 213
    max_size: 264
    aspect_ratio: 2
    flip: true
    clip: false
    variance: 0.1
    variance: 0.1
    variance: 0.2
    variance: 0.2
    step: 100
    offset: 0.5
  }
}
layer {
  name: "conv9_2_mbox_loc"
  type: "Convolution"
  bottom: "conv9_2"
  top: "conv9_2_mbox_loc"
  param {
    lr_mult: 1
    decay_mult: 1
  }
  param {
    lr_mult: 2
    decay_mult: 0
  }
  convolution_param {
    num_output: 16
    pad: 1
    kernel_size: 3
    stride: 1
    weight_filler {
      type: "xavier"
    }
    bias_filler {
      type: "constant"
      value: 0
    }
  }
}
layer {
  name: "conv9_2_mbox_loc_perm"
  type: "Permute"
  bottom: "conv9_2_mbox_loc"
  top: "conv9_2_mbox_loc_perm"
  permute_param {
    order: 0
    order: 2
    order: 3
    order: 1
  }
}
layer {
  name: "conv9_2_mbox_loc_flat"
  type: "Flatten"
  bottom: "conv9_2_mbox_loc_perm"
  top: "conv9_2_mbox_loc_flat"
  flatten_param {
    axis: 1
  }
}
layer {
  name: "conv9_2_mbox_conf"
  type: "Convolution"
  bottom: "conv9_2"
  top: "conv9_2_mbox_conf"
  param {
    lr_mult: 1
    decay_mult: 1
  }
  param {
    lr_mult: 2
    decay_mult: 0
  }
  convolution_param {
    num_output: 84
    pad: 1
    kernel_size: 3
    stride: 1
    weight_filler {
      type: "xavier"
    }
    bias_filler {
      type: "constant"
      value: 0
    }
  }
}
layer {
  name: "conv9_2_mbox_conf_perm"
  type: "Permute"
  bottom: "conv9_2_mbox_conf"
  top: "conv9_2_mbox_conf_perm"
  permute_param {
    order: 0
    order: 2
    order: 3
    order: 1
  }
}
layer {
  name: "conv9_2_mbox_conf_flat"
  type: "Flatten"
  bottom: "conv9_2_mbox_conf_perm"
  top: "conv9_2_mbox_conf_flat"
  flatten_param {
    axis: 1
  }
}
layer {
  name: "conv9_2_mbox_priorbox"
  type: "PriorBox"
  bottom: "conv9_2"
  bottom: "data"
  top: "conv9_2_mbox_priorbox"
  prior_box_param {
    min_size: 264
    max_size: 315
    aspect_ratio: 2
    flip: true
    clip: false
    variance: 0.1
    variance: 0.1
    variance: 0.2
    variance: 0.2
    step: 300
    offset: 0.5
  }
}
layer {
  name: "mbox_loc"
  type: "Concat"
  bottom: "conv4_3_norm_mbox_loc_flat"
  bottom: "fc7_mbox_loc_flat"
  bottom: "conv6_2_mbox_loc_flat"
  bottom: "conv7_2_mbox_loc_flat"
  bottom: "conv8_2_mbox_loc_flat"
  bottom: "conv9_2_mbox_loc_flat"
  top: "mbox_loc"
  concat_param {
    axis: 1
  }
}
layer {
  name: "mbox_conf"
  type: "Concat"
  bottom: "conv4_3_norm_mbox_conf_flat"
  bottom: "fc7_mbox_conf_flat"
  bottom: "conv6_2_mbox_conf_flat"
  bottom: "conv7_2_mbox_conf_flat"
  bottom: "conv8_2_mbox_conf_flat"
  bottom: "conv9_2_mbox_conf_flat"
  top: "mbox_conf"
  concat_param {
    axis: 1
  }
}
layer {
  name: "mbox_priorbox"
  type: "Concat"
  bottom: "conv4_3_norm_mbox_priorbox"
  bottom: "fc7_mbox_priorbox"
  bottom: "conv6_2_mbox_priorbox"
  bottom: "conv7_2_mbox_priorbox"
  bottom: "conv8_2_mbox_priorbox"
  bottom: "conv9_2_mbox_priorbox"
  top: "mbox_priorbox"
  concat_param {
    axis: 2
  }
}
layer {
  name: "mbox_conf_reshape"
  type: "Reshape"
  bottom: "mbox_conf"
  top: "mbox_conf_reshape"
  reshape_param {
    shape {
      dim: 0
      dim: -1
      dim: 21
    }
  }
}
layer {
  name: "mbox_conf_softmax"
  type: "Softmax"
  bottom: "mbox_conf_reshape"
  top: "mbox_conf_softmax"
  softmax_param {
    axis: 2
  }
}
layer {
  name: "mbox_conf_flatten"
  type: "Flatten"
  bottom: "mbox_conf_softmax"
  top: "mbox_conf_flatten"
  flatten_param {
    axis: 1
  }
}
layer {
  name: "detection_out"
  type: "DetectionOutput"
  bottom: "mbox_loc"
  bottom: "mbox_conf_flatten"
  bottom: "mbox_priorbox"
  top: "detection_out"
  include {
    phase: TEST
  }
  detection_output_param {
    num_classes: 21
    share_location: true
    background_label_id: 0
    nms_param {
      nms_threshold: 0.45
      top_k: 400
    }
    save_output_param {
      output_directory: "/home/ics/data/VOCdevkit/results/VOC2007/SSD_300x300/Main"
      output_name_prefix: "comp4_det_test_"
      output_format: "VOC"
      label_map_file: "data/VOC0712/labelmap_voc.prototxt"
      name_size_file: "data/VOC0712/test_name_size.txt"
      num_test_image: 4952
    }
    code_type: CENTER_SIZE
    keep_top_k: 200
    confidence_threshold: 0.01
  }
}
layer {
  name: "detection_eval"
  type: "DetectionEvaluate"
  bottom: "detection_out"
  bottom: "label"
  top: "detection_eval"
  include {
    phase: TEST
  }
  detection_evaluate_param {
    num_classes: 21
    background_label_id: 0
    overlap_threshold: 0.5
    evaluate_difficult_gt: false
    name_size_file: "data/VOC0712/test_name_size.txt"
  }
}
I0213 19:37:34.507755  6127 layer_factory.hpp:77] Creating layer data
I0213 19:37:34.507799  6127 net.cpp:100] Creating Layer data
I0213 19:37:34.507805  6127 net.cpp:408] data -> data
I0213 19:37:34.507812  6127 net.cpp:408] data -> label
I0213 19:37:34.508368  6145 db_lmdb.cpp:35] Opened lmdb examples/VOC0712/VOC0712_test_lmdb
I0213 19:37:34.509869  6127 annotated_data_layer.cpp:62] output data size: 8,3,300,300
I0213 19:37:34.518877  6127 net.cpp:150] Setting up data
I0213 19:37:34.518895  6127 net.cpp:157] Top shape: 8 3 300 300 (2160000)
I0213 19:37:34.518899  6127 net.cpp:157] Top shape: 1 1 2 8 (16)
I0213 19:37:34.518901  6127 net.cpp:165] Memory required for data: 8640064
I0213 19:37:34.518904  6127 layer_factory.hpp:77] Creating layer data_data_0_split
I0213 19:37:34.518913  6127 net.cpp:100] Creating Layer data_data_0_split
I0213 19:37:34.518915  6127 net.cpp:434] data_data_0_split <- data
I0213 19:37:34.518919  6127 net.cpp:408] data_data_0_split -> data_data_0_split_0
I0213 19:37:34.518925  6127 net.cpp:408] data_data_0_split -> data_data_0_split_1
I0213 19:37:34.518929  6127 net.cpp:408] data_data_0_split -> data_data_0_split_2
I0213 19:37:34.518932  6127 net.cpp:408] data_data_0_split -> data_data_0_split_3
I0213 19:37:34.518935  6127 net.cpp:408] data_data_0_split -> data_data_0_split_4
I0213 19:37:34.518939  6127 net.cpp:408] data_data_0_split -> data_data_0_split_5
I0213 19:37:34.518941  6127 net.cpp:408] data_data_0_split -> data_data_0_split_6
I0213 19:37:34.519028  6127 net.cpp:150] Setting up data_data_0_split
I0213 19:37:34.519032  6127 net.cpp:157] Top shape: 8 3 300 300 (2160000)
I0213 19:37:34.519035  6127 net.cpp:157] Top shape: 8 3 300 300 (2160000)
I0213 19:37:34.519037  6127 net.cpp:157] Top shape: 8 3 300 300 (2160000)
I0213 19:37:34.519040  6127 net.cpp:157] Top shape: 8 3 300 300 (2160000)
I0213 19:37:34.519042  6127 net.cpp:157] Top shape: 8 3 300 300 (2160000)
I0213 19:37:34.519044  6127 net.cpp:157] Top shape: 8 3 300 300 (2160000)
I0213 19:37:34.519047  6127 net.cpp:157] Top shape: 8 3 300 300 (2160000)
I0213 19:37:34.519062  6127 net.cpp:165] Memory required for data: 69120064
I0213 19:37:34.519064  6127 layer_factory.hpp:77] Creating layer conv1_1
I0213 19:37:34.519071  6127 net.cpp:100] Creating Layer conv1_1
I0213 19:37:34.519073  6127 net.cpp:434] conv1_1 <- data_data_0_split_0
I0213 19:37:34.519078  6127 net.cpp:408] conv1_1 -> conv1_1
I0213 19:37:34.520038  6127 net.cpp:150] Setting up conv1_1
I0213 19:37:34.520045  6127 net.cpp:157] Top shape: 8 64 300 300 (46080000)
I0213 19:37:34.520048  6127 net.cpp:165] Memory required for data: 253440064
I0213 19:37:34.520054  6127 layer_factory.hpp:77] Creating layer relu1_1
I0213 19:37:34.520059  6127 net.cpp:100] Creating Layer relu1_1
I0213 19:37:34.520061  6127 net.cpp:434] relu1_1 <- conv1_1
I0213 19:37:34.520064  6127 net.cpp:395] relu1_1 -> conv1_1 (in-place)
I0213 19:37:34.520165  6127 net.cpp:150] Setting up relu1_1
I0213 19:37:34.520169  6127 net.cpp:157] Top shape: 8 64 300 300 (46080000)
I0213 19:37:34.520171  6127 net.cpp:165] Memory required for data: 437760064
I0213 19:37:34.520174  6127 layer_factory.hpp:77] Creating layer conv1_2
I0213 19:37:34.520179  6127 net.cpp:100] Creating Layer conv1_2
I0213 19:37:34.520181  6127 net.cpp:434] conv1_2 <- conv1_1
I0213 19:37:34.520185  6127 net.cpp:408] conv1_2 -> conv1_2
I0213 19:37:34.521162  6127 net.cpp:150] Setting up conv1_2
I0213 19:37:34.521168  6127 net.cpp:157] Top shape: 8 64 300 300 (46080000)
I0213 19:37:34.521172  6127 net.cpp:165] Memory required for data: 622080064
I0213 19:37:34.521176  6127 layer_factory.hpp:77] Creating layer relu1_2
I0213 19:37:34.521180  6127 net.cpp:100] Creating Layer relu1_2
I0213 19:37:34.521183  6127 net.cpp:434] relu1_2 <- conv1_2
I0213 19:37:34.521185  6127 net.cpp:395] relu1_2 -> conv1_2 (in-place)
I0213 19:37:34.522294  6127 net.cpp:150] Setting up relu1_2
I0213 19:37:34.522301  6127 net.cpp:157] Top shape: 8 64 300 300 (46080000)
I0213 19:37:34.522305  6127 net.cpp:165] Memory required for data: 806400064
I0213 19:37:34.522306  6127 layer_factory.hpp:77] Creating layer pool1
I0213 19:37:34.522310  6127 net.cpp:100] Creating Layer pool1
I0213 19:37:34.522313  6127 net.cpp:434] pool1 <- conv1_2
I0213 19:37:34.522316  6127 net.cpp:408] pool1 -> pool1
I0213 19:37:34.522347  6127 net.cpp:150] Setting up pool1
I0213 19:37:34.522351  6127 net.cpp:157] Top shape: 8 64 150 150 (11520000)
I0213 19:37:34.522352  6127 net.cpp:165] Memory required for data: 852480064
I0213 19:37:34.522354  6127 layer_factory.hpp:77] Creating layer conv2_1
I0213 19:37:34.522359  6127 net.cpp:100] Creating Layer conv2_1
I0213 19:37:34.522361  6127 net.cpp:434] conv2_1 <- pool1
I0213 19:37:34.522366  6127 net.cpp:408] conv2_1 -> conv2_1
I0213 19:37:34.523078  6127 net.cpp:150] Setting up conv2_1
I0213 19:37:34.523084  6127 net.cpp:157] Top shape: 8 128 150 150 (23040000)
I0213 19:37:34.523087  6127 net.cpp:165] Memory required for data: 944640064
I0213 19:37:34.523092  6127 layer_factory.hpp:77] Creating layer relu2_1
I0213 19:37:34.523097  6127 net.cpp:100] Creating Layer relu2_1
I0213 19:37:34.523098  6127 net.cpp:434] relu2_1 <- conv2_1
I0213 19:37:34.523102  6127 net.cpp:395] relu2_1 -> conv2_1 (in-place)
I0213 19:37:34.523528  6127 net.cpp:150] Setting up relu2_1
I0213 19:37:34.523535  6127 net.cpp:157] Top shape: 8 128 150 150 (23040000)
I0213 19:37:34.523537  6127 net.cpp:165] Memory required for data: 1036800064
I0213 19:37:34.523540  6127 layer_factory.hpp:77] Creating layer conv2_2
I0213 19:37:34.523545  6127 net.cpp:100] Creating Layer conv2_2
I0213 19:37:34.523548  6127 net.cpp:434] conv2_2 <- conv2_1
I0213 19:37:34.523552  6127 net.cpp:408] conv2_2 -> conv2_2
I0213 19:37:34.525192  6127 net.cpp:150] Setting up conv2_2
I0213 19:37:34.525198  6127 net.cpp:157] Top shape: 8 128 150 150 (23040000)
I0213 19:37:34.525202  6127 net.cpp:165] Memory required for data: 1128960064
I0213 19:37:34.525207  6127 layer_factory.hpp:77] Creating layer relu2_2
I0213 19:37:34.525213  6127 net.cpp:100] Creating Layer relu2_2
I0213 19:37:34.525215  6127 net.cpp:434] relu2_2 <- conv2_2
I0213 19:37:34.525218  6127 net.cpp:395] relu2_2 -> conv2_2 (in-place)
I0213 19:37:34.525342  6127 net.cpp:150] Setting up relu2_2
I0213 19:37:34.525347  6127 net.cpp:157] Top shape: 8 128 150 150 (23040000)
I0213 19:37:34.525349  6127 net.cpp:165] Memory required for data: 1221120064
I0213 19:37:34.525352  6127 layer_factory.hpp:77] Creating layer pool2
I0213 19:37:34.525357  6127 net.cpp:100] Creating Layer pool2
I0213 19:37:34.525358  6127 net.cpp:434] pool2 <- conv2_2
I0213 19:37:34.525362  6127 net.cpp:408] pool2 -> pool2
I0213 19:37:34.525391  6127 net.cpp:150] Setting up pool2
I0213 19:37:34.525395  6127 net.cpp:157] Top shape: 8 128 75 75 (5760000)
I0213 19:37:34.525398  6127 net.cpp:165] Memory required for data: 1244160064
I0213 19:37:34.525399  6127 layer_factory.hpp:77] Creating layer conv3_1
I0213 19:37:34.525405  6127 net.cpp:100] Creating Layer conv3_1
I0213 19:37:34.525408  6127 net.cpp:434] conv3_1 <- pool2
I0213 19:37:34.525411  6127 net.cpp:408] conv3_1 -> conv3_1
I0213 19:37:34.527984  6127 net.cpp:150] Setting up conv3_1
I0213 19:37:34.527993  6127 net.cpp:157] Top shape: 8 256 75 75 (11520000)
I0213 19:37:34.527995  6127 net.cpp:165] Memory required for data: 1290240064
I0213 19:37:34.528002  6127 layer_factory.hpp:77] Creating layer relu3_1
I0213 19:37:34.528007  6127 net.cpp:100] Creating Layer relu3_1
I0213 19:37:34.528008  6127 net.cpp:434] relu3_1 <- conv3_1
I0213 19:37:34.528012  6127 net.cpp:395] relu3_1 -> conv3_1 (in-place)
I0213 19:37:34.528132  6127 net.cpp:150] Setting up relu3_1
I0213 19:37:34.528137  6127 net.cpp:157] Top shape: 8 256 75 75 (11520000)
I0213 19:37:34.528139  6127 net.cpp:165] Memory required for data: 1336320064
I0213 19:37:34.528141  6127 layer_factory.hpp:77] Creating layer conv3_2
I0213 19:37:34.528147  6127 net.cpp:100] Creating Layer conv3_2
I0213 19:37:34.528151  6127 net.cpp:434] conv3_2 <- conv3_1
I0213 19:37:34.528154  6127 net.cpp:408] conv3_2 -> conv3_2
I0213 19:37:34.531644  6127 net.cpp:150] Setting up conv3_2
I0213 19:37:34.531654  6127 net.cpp:157] Top shape: 8 256 75 75 (11520000)
I0213 19:37:34.531657  6127 net.cpp:165] Memory required for data: 1382400064
I0213 19:37:34.531661  6127 layer_factory.hpp:77] Creating layer relu3_2
I0213 19:37:34.531667  6127 net.cpp:100] Creating Layer relu3_2
I0213 19:37:34.531671  6127 net.cpp:434] relu3_2 <- conv3_2
I0213 19:37:34.531673  6127 net.cpp:395] relu3_2 -> conv3_2 (in-place)
I0213 19:37:34.531791  6127 net.cpp:150] Setting up relu3_2
I0213 19:37:34.531796  6127 net.cpp:157] Top shape: 8 256 75 75 (11520000)
I0213 19:37:34.531800  6127 net.cpp:165] Memory required for data: 1428480064
I0213 19:37:34.531801  6127 layer_factory.hpp:77] Creating layer conv3_3
I0213 19:37:34.531810  6127 net.cpp:100] Creating Layer conv3_3
I0213 19:37:34.531812  6127 net.cpp:434] conv3_3 <- conv3_2
I0213 19:37:34.531816  6127 net.cpp:408] conv3_3 -> conv3_3
I0213 19:37:34.535392  6127 net.cpp:150] Setting up conv3_3
I0213 19:37:34.535406  6127 net.cpp:157] Top shape: 8 256 75 75 (11520000)
I0213 19:37:34.535408  6127 net.cpp:165] Memory required for data: 1474560064
I0213 19:37:34.535414  6127 layer_factory.hpp:77] Creating layer relu3_3
I0213 19:37:34.535421  6127 net.cpp:100] Creating Layer relu3_3
I0213 19:37:34.535424  6127 net.cpp:434] relu3_3 <- conv3_3
I0213 19:37:34.535429  6127 net.cpp:395] relu3_3 -> conv3_3 (in-place)
I0213 19:37:34.535544  6127 net.cpp:150] Setting up relu3_3
I0213 19:37:34.535549  6127 net.cpp:157] Top shape: 8 256 75 75 (11520000)
I0213 19:37:34.535552  6127 net.cpp:165] Memory required for data: 1520640064
I0213 19:37:34.535553  6127 layer_factory.hpp:77] Creating layer pool3
I0213 19:37:34.535558  6127 net.cpp:100] Creating Layer pool3
I0213 19:37:34.535560  6127 net.cpp:434] pool3 <- conv3_3
I0213 19:37:34.535564  6127 net.cpp:408] pool3 -> pool3
I0213 19:37:34.535596  6127 net.cpp:150] Setting up pool3
I0213 19:37:34.535600  6127 net.cpp:157] Top shape: 8 256 38 38 (2957312)
I0213 19:37:34.535603  6127 net.cpp:165] Memory required for data: 1532469312
I0213 19:37:34.535604  6127 layer_factory.hpp:77] Creating layer conv4_1
I0213 19:37:34.535626  6127 net.cpp:100] Creating Layer conv4_1
I0213 19:37:34.535629  6127 net.cpp:434] conv4_1 <- pool3
I0213 19:37:34.535634  6127 net.cpp:408] conv4_1 -> conv4_1
I0213 19:37:34.541477  6127 net.cpp:150] Setting up conv4_1
I0213 19:37:34.541493  6127 net.cpp:157] Top shape: 8 512 38 38 (5914624)
I0213 19:37:34.541496  6127 net.cpp:165] Memory required for data: 1556127808
I0213 19:37:34.541502  6127 layer_factory.hpp:77] Creating layer relu4_1
I0213 19:37:34.541508  6127 net.cpp:100] Creating Layer relu4_1
I0213 19:37:34.541512  6127 net.cpp:434] relu4_1 <- conv4_1
I0213 19:37:34.541517  6127 net.cpp:395] relu4_1 -> conv4_1 (in-place)
I0213 19:37:34.541963  6127 net.cpp:150] Setting up relu4_1
I0213 19:37:34.541970  6127 net.cpp:157] Top shape: 8 512 38 38 (5914624)
I0213 19:37:34.541972  6127 net.cpp:165] Memory required for data: 1579786304
I0213 19:37:34.541975  6127 layer_factory.hpp:77] Creating layer conv4_2
I0213 19:37:34.541982  6127 net.cpp:100] Creating Layer conv4_2
I0213 19:37:34.541985  6127 net.cpp:434] conv4_2 <- conv4_1
I0213 19:37:34.541990  6127 net.cpp:408] conv4_2 -> conv4_2
I0213 19:37:34.552076  6127 net.cpp:150] Setting up conv4_2
I0213 19:37:34.552093  6127 net.cpp:157] Top shape: 8 512 38 38 (5914624)
I0213 19:37:34.552098  6127 net.cpp:165] Memory required for data: 1603444800
I0213 19:37:34.552110  6127 layer_factory.hpp:77] Creating layer relu4_2
I0213 19:37:34.552119  6127 net.cpp:100] Creating Layer relu4_2
I0213 19:37:34.552122  6127 net.cpp:434] relu4_2 <- conv4_2
I0213 19:37:34.552129  6127 net.cpp:395] relu4_2 -> conv4_2 (in-place)
I0213 19:37:34.552649  6127 net.cpp:150] Setting up relu4_2
I0213 19:37:34.552656  6127 net.cpp:157] Top shape: 8 512 38 38 (5914624)
I0213 19:37:34.552659  6127 net.cpp:165] Memory required for data: 1627103296
I0213 19:37:34.552661  6127 layer_factory.hpp:77] Creating layer conv4_3
I0213 19:37:34.552669  6127 net.cpp:100] Creating Layer conv4_3
I0213 19:37:34.552671  6127 net.cpp:434] conv4_3 <- conv4_2
I0213 19:37:34.552675  6127 net.cpp:408] conv4_3 -> conv4_3
I0213 19:37:34.562647  6127 net.cpp:150] Setting up conv4_3
I0213 19:37:34.562662  6127 net.cpp:157] Top shape: 8 512 38 38 (5914624)
I0213 19:37:34.562664  6127 net.cpp:165] Memory required for data: 1650761792
I0213 19:37:34.562671  6127 layer_factory.hpp:77] Creating layer relu4_3
I0213 19:37:34.562677  6127 net.cpp:100] Creating Layer relu4_3
I0213 19:37:34.562680  6127 net.cpp:434] relu4_3 <- conv4_3
I0213 19:37:34.562685  6127 net.cpp:395] relu4_3 -> conv4_3 (in-place)
I0213 19:37:34.562798  6127 net.cpp:150] Setting up relu4_3
I0213 19:37:34.562803  6127 net.cpp:157] Top shape: 8 512 38 38 (5914624)
I0213 19:37:34.562805  6127 net.cpp:165] Memory required for data: 1674420288
I0213 19:37:34.562808  6127 layer_factory.hpp:77] Creating layer conv4_3_relu4_3_0_split
I0213 19:37:34.562811  6127 net.cpp:100] Creating Layer conv4_3_relu4_3_0_split
I0213 19:37:34.562813  6127 net.cpp:434] conv4_3_relu4_3_0_split <- conv4_3
I0213 19:37:34.562818  6127 net.cpp:408] conv4_3_relu4_3_0_split -> conv4_3_relu4_3_0_split_0
I0213 19:37:34.562821  6127 net.cpp:408] conv4_3_relu4_3_0_split -> conv4_3_relu4_3_0_split_1
I0213 19:37:34.562852  6127 net.cpp:150] Setting up conv4_3_relu4_3_0_split
I0213 19:37:34.562856  6127 net.cpp:157] Top shape: 8 512 38 38 (5914624)
I0213 19:37:34.562858  6127 net.cpp:157] Top shape: 8 512 38 38 (5914624)
I0213 19:37:34.562860  6127 net.cpp:165] Memory required for data: 1721737280
I0213 19:37:34.562862  6127 layer_factory.hpp:77] Creating layer pool4
I0213 19:37:34.562866  6127 net.cpp:100] Creating Layer pool4
I0213 19:37:34.562868  6127 net.cpp:434] pool4 <- conv4_3_relu4_3_0_split_0
I0213 19:37:34.562872  6127 net.cpp:408] pool4 -> pool4
I0213 19:37:34.562899  6127 net.cpp:150] Setting up pool4
I0213 19:37:34.562902  6127 net.cpp:157] Top shape: 8 512 19 19 (1478656)
I0213 19:37:34.562904  6127 net.cpp:165] Memory required for data: 1727651904
I0213 19:37:34.562906  6127 layer_factory.hpp:77] Creating layer conv5_1
I0213 19:37:34.562913  6127 net.cpp:100] Creating Layer conv5_1
I0213 19:37:34.562927  6127 net.cpp:434] conv5_1 <- pool4
I0213 19:37:34.562932  6127 net.cpp:408] conv5_1 -> conv5_1
I0213 19:37:34.572994  6127 net.cpp:150] Setting up conv5_1
I0213 19:37:34.573011  6127 net.cpp:157] Top shape: 8 512 19 19 (1478656)
I0213 19:37:34.573015  6127 net.cpp:165] Memory required for data: 1733566528
I0213 19:37:34.573024  6127 layer_factory.hpp:77] Creating layer relu5_1
I0213 19:37:34.573034  6127 net.cpp:100] Creating Layer relu5_1
I0213 19:37:34.573038  6127 net.cpp:434] relu5_1 <- conv5_1
I0213 19:37:34.573046  6127 net.cpp:395] relu5_1 -> conv5_1 (in-place)
I0213 19:37:34.573206  6127 net.cpp:150] Setting up relu5_1
I0213 19:37:34.573215  6127 net.cpp:157] Top shape: 8 512 19 19 (1478656)
I0213 19:37:34.573218  6127 net.cpp:165] Memory required for data: 1739481152
I0213 19:37:34.573222  6127 layer_factory.hpp:77] Creating layer conv5_2
I0213 19:37:34.573232  6127 net.cpp:100] Creating Layer conv5_2
I0213 19:37:34.573236  6127 net.cpp:434] conv5_2 <- conv5_1
I0213 19:37:34.573243  6127 net.cpp:408] conv5_2 -> conv5_2
I0213 19:37:34.583153  6127 net.cpp:150] Setting up conv5_2
I0213 19:37:34.583170  6127 net.cpp:157] Top shape: 8 512 19 19 (1478656)
I0213 19:37:34.583173  6127 net.cpp:165] Memory required for data: 1745395776
I0213 19:37:34.583178  6127 layer_factory.hpp:77] Creating layer relu5_2
I0213 19:37:34.583185  6127 net.cpp:100] Creating Layer relu5_2
I0213 19:37:34.583189  6127 net.cpp:434] relu5_2 <- conv5_2
I0213 19:37:34.583192  6127 net.cpp:395] relu5_2 -> conv5_2 (in-place)
I0213 19:37:34.583304  6127 net.cpp:150] Setting up relu5_2
I0213 19:37:34.583309  6127 net.cpp:157] Top shape: 8 512 19 19 (1478656)
I0213 19:37:34.583312  6127 net.cpp:165] Memory required for data: 1751310400
I0213 19:37:34.583313  6127 layer_factory.hpp:77] Creating layer conv5_3
I0213 19:37:34.583322  6127 net.cpp:100] Creating Layer conv5_3
I0213 19:37:34.583323  6127 net.cpp:434] conv5_3 <- conv5_2
I0213 19:37:34.583328  6127 net.cpp:408] conv5_3 -> conv5_3
I0213 19:37:34.593288  6127 net.cpp:150] Setting up conv5_3
I0213 19:37:34.593302  6127 net.cpp:157] Top shape: 8 512 19 19 (1478656)
I0213 19:37:34.593305  6127 net.cpp:165] Memory required for data: 1757225024
I0213 19:37:34.593312  6127 layer_factory.hpp:77] Creating layer relu5_3
I0213 19:37:34.593320  6127 net.cpp:100] Creating Layer relu5_3
I0213 19:37:34.593323  6127 net.cpp:434] relu5_3 <- conv5_3
I0213 19:37:34.593327  6127 net.cpp:395] relu5_3 -> conv5_3 (in-place)
I0213 19:37:34.593439  6127 net.cpp:150] Setting up relu5_3
I0213 19:37:34.593444  6127 net.cpp:157] Top shape: 8 512 19 19 (1478656)
I0213 19:37:34.593446  6127 net.cpp:165] Memory required for data: 1763139648
I0213 19:37:34.593448  6127 layer_factory.hpp:77] Creating layer pool5
I0213 19:37:34.593453  6127 net.cpp:100] Creating Layer pool5
I0213 19:37:34.593456  6127 net.cpp:434] pool5 <- conv5_3
I0213 19:37:34.593459  6127 net.cpp:408] pool5 -> pool5
I0213 19:37:34.593492  6127 net.cpp:150] Setting up pool5
I0213 19:37:34.593497  6127 net.cpp:157] Top shape: 8 512 19 19 (1478656)
I0213 19:37:34.593498  6127 net.cpp:165] Memory required for data: 1769054272
I0213 19:37:34.593500  6127 layer_factory.hpp:77] Creating layer fc6
I0213 19:37:34.593507  6127 net.cpp:100] Creating Layer fc6
I0213 19:37:34.593509  6127 net.cpp:434] fc6 <- pool5
I0213 19:37:34.593513  6127 net.cpp:408] fc6 -> fc6
I0213 19:37:34.611519  6127 net.cpp:150] Setting up fc6
I0213 19:37:34.611534  6127 net.cpp:157] Top shape: 8 1024 19 19 (2957312)
I0213 19:37:34.611537  6127 net.cpp:165] Memory required for data: 1780883520
I0213 19:37:34.611542  6127 layer_factory.hpp:77] Creating layer relu6
I0213 19:37:34.611548  6127 net.cpp:100] Creating Layer relu6
I0213 19:37:34.611552  6127 net.cpp:434] relu6 <- fc6
I0213 19:37:34.611557  6127 net.cpp:395] relu6 -> fc6 (in-place)
I0213 19:37:34.612134  6127 net.cpp:150] Setting up relu6
I0213 19:37:34.612143  6127 net.cpp:157] Top shape: 8 1024 19 19 (2957312)
I0213 19:37:34.612144  6127 net.cpp:165] Memory required for data: 1792712768
I0213 19:37:34.612155  6127 layer_factory.hpp:77] Creating layer fc7
I0213 19:37:34.612164  6127 net.cpp:100] Creating Layer fc7
I0213 19:37:34.612166  6127 net.cpp:434] fc7 <- fc6
I0213 19:37:34.612171  6127 net.cpp:408] fc7 -> fc7
I0213 19:37:34.617224  6127 net.cpp:150] Setting up fc7
I0213 19:37:34.617238  6127 net.cpp:157] Top shape: 8 1024 19 19 (2957312)
I0213 19:37:34.617239  6127 net.cpp:165] Memory required for data: 1804542016
I0213 19:37:34.617245  6127 layer_factory.hpp:77] Creating layer relu7
I0213 19:37:34.617250  6127 net.cpp:100] Creating Layer relu7
I0213 19:37:34.617254  6127 net.cpp:434] relu7 <- fc7
I0213 19:37:34.617259  6127 net.cpp:395] relu7 -> fc7 (in-place)
I0213 19:37:34.617367  6127 net.cpp:150] Setting up relu7
I0213 19:37:34.617373  6127 net.cpp:157] Top shape: 8 1024 19 19 (2957312)
I0213 19:37:34.617375  6127 net.cpp:165] Memory required for data: 1816371264
I0213 19:37:34.617377  6127 layer_factory.hpp:77] Creating layer fc7_relu7_0_split
I0213 19:37:34.617382  6127 net.cpp:100] Creating Layer fc7_relu7_0_split
I0213 19:37:34.617383  6127 net.cpp:434] fc7_relu7_0_split <- fc7
I0213 19:37:34.617388  6127 net.cpp:408] fc7_relu7_0_split -> fc7_relu7_0_split_0
I0213 19:37:34.617391  6127 net.cpp:408] fc7_relu7_0_split -> fc7_relu7_0_split_1
I0213 19:37:34.617396  6127 net.cpp:408] fc7_relu7_0_split -> fc7_relu7_0_split_2
I0213 19:37:34.617400  6127 net.cpp:408] fc7_relu7_0_split -> fc7_relu7_0_split_3
I0213 19:37:34.617451  6127 net.cpp:150] Setting up fc7_relu7_0_split
I0213 19:37:34.617455  6127 net.cpp:157] Top shape: 8 1024 19 19 (2957312)
I0213 19:37:34.617458  6127 net.cpp:157] Top shape: 8 1024 19 19 (2957312)
I0213 19:37:34.617460  6127 net.cpp:157] Top shape: 8 1024 19 19 (2957312)
I0213 19:37:34.617462  6127 net.cpp:157] Top shape: 8 1024 19 19 (2957312)
I0213 19:37:34.617465  6127 net.cpp:165] Memory required for data: 1863688256
I0213 19:37:34.617466  6127 layer_factory.hpp:77] Creating layer conv6_1
I0213 19:37:34.617473  6127 net.cpp:100] Creating Layer conv6_1
I0213 19:37:34.617475  6127 net.cpp:434] conv6_1 <- fc7_relu7_0_split_0
I0213 19:37:34.617480  6127 net.cpp:408] conv6_1 -> conv6_1
I0213 19:37:34.620070  6127 net.cpp:150] Setting up conv6_1
I0213 19:37:34.620079  6127 net.cpp:157] Top shape: 8 256 19 19 (739328)
I0213 19:37:34.620081  6127 net.cpp:165] Memory required for data: 1866645568
I0213 19:37:34.620085  6127 layer_factory.hpp:77] Creating layer conv6_1_relu
I0213 19:37:34.620091  6127 net.cpp:100] Creating Layer conv6_1_relu
I0213 19:37:34.620095  6127 net.cpp:434] conv6_1_relu <- conv6_1
I0213 19:37:34.620097  6127 net.cpp:395] conv6_1_relu -> conv6_1 (in-place)
I0213 19:37:34.620208  6127 net.cpp:150] Setting up conv6_1_relu
I0213 19:37:34.620211  6127 net.cpp:157] Top shape: 8 256 19 19 (739328)
I0213 19:37:34.620213  6127 net.cpp:165] Memory required for data: 1869602880
I0213 19:37:34.620216  6127 layer_factory.hpp:77] Creating layer conv6_2
I0213 19:37:34.620223  6127 net.cpp:100] Creating Layer conv6_2
I0213 19:37:34.620225  6127 net.cpp:434] conv6_2 <- conv6_1
I0213 19:37:34.620229  6127 net.cpp:408] conv6_2 -> conv6_2
I0213 19:37:34.625813  6127 net.cpp:150] Setting up conv6_2
I0213 19:37:34.625828  6127 net.cpp:157] Top shape: 8 512 10 10 (409600)
I0213 19:37:34.625830  6127 net.cpp:165] Memory required for data: 1871241280
I0213 19:37:34.625841  6127 layer_factory.hpp:77] Creating layer conv6_2_relu
I0213 19:37:34.625849  6127 net.cpp:100] Creating Layer conv6_2_relu
I0213 19:37:34.625851  6127 net.cpp:434] conv6_2_relu <- conv6_2
I0213 19:37:34.625855  6127 net.cpp:395] conv6_2_relu -> conv6_2 (in-place)
I0213 19:37:34.625964  6127 net.cpp:150] Setting up conv6_2_relu
I0213 19:37:34.625969  6127 net.cpp:157] Top shape: 8 512 10 10 (409600)
I0213 19:37:34.625972  6127 net.cpp:165] Memory required for data: 1872879680
I0213 19:37:34.625973  6127 layer_factory.hpp:77] Creating layer conv6_2_conv6_2_relu_0_split
I0213 19:37:34.625978  6127 net.cpp:100] Creating Layer conv6_2_conv6_2_relu_0_split
I0213 19:37:34.625980  6127 net.cpp:434] conv6_2_conv6_2_relu_0_split <- conv6_2
I0213 19:37:34.625996  6127 net.cpp:408] conv6_2_conv6_2_relu_0_split -> conv6_2_conv6_2_relu_0_split_0
I0213 19:37:34.626000  6127 net.cpp:408] conv6_2_conv6_2_relu_0_split -> conv6_2_conv6_2_relu_0_split_1
I0213 19:37:34.626004  6127 net.cpp:408] conv6_2_conv6_2_relu_0_split -> conv6_2_conv6_2_relu_0_split_2
I0213 19:37:34.626008  6127 net.cpp:408] conv6_2_conv6_2_relu_0_split -> conv6_2_conv6_2_relu_0_split_3
I0213 19:37:34.626060  6127 net.cpp:150] Setting up conv6_2_conv6_2_relu_0_split
I0213 19:37:34.626065  6127 net.cpp:157] Top shape: 8 512 10 10 (409600)
I0213 19:37:34.626066  6127 net.cpp:157] Top shape: 8 512 10 10 (409600)
I0213 19:37:34.626070  6127 net.cpp:157] Top shape: 8 512 10 10 (409600)
I0213 19:37:34.626071  6127 net.cpp:157] Top shape: 8 512 10 10 (409600)
I0213 19:37:34.626073  6127 net.cpp:165] Memory required for data: 1879433280
I0213 19:37:34.626075  6127 layer_factory.hpp:77] Creating layer conv7_1
I0213 19:37:34.626081  6127 net.cpp:100] Creating Layer conv7_1
I0213 19:37:34.626083  6127 net.cpp:434] conv7_1 <- conv6_2_conv6_2_relu_0_split_0
I0213 19:37:34.626088  6127 net.cpp:408] conv7_1 -> conv7_1
I0213 19:37:34.627526  6127 net.cpp:150] Setting up conv7_1
I0213 19:37:34.627533  6127 net.cpp:157] Top shape: 8 128 10 10 (102400)
I0213 19:37:34.627537  6127 net.cpp:165] Memory required for data: 1879842880
I0213 19:37:34.627540  6127 layer_factory.hpp:77] Creating layer conv7_1_relu
I0213 19:37:34.627544  6127 net.cpp:100] Creating Layer conv7_1_relu
I0213 19:37:34.627547  6127 net.cpp:434] conv7_1_relu <- conv7_1
I0213 19:37:34.627550  6127 net.cpp:395] conv7_1_relu -> conv7_1 (in-place)
I0213 19:37:34.627660  6127 net.cpp:150] Setting up conv7_1_relu
I0213 19:37:34.627665  6127 net.cpp:157] Top shape: 8 128 10 10 (102400)
I0213 19:37:34.627667  6127 net.cpp:165] Memory required for data: 1880252480
I0213 19:37:34.627670  6127 layer_factory.hpp:77] Creating layer conv7_2
I0213 19:37:34.627676  6127 net.cpp:100] Creating Layer conv7_2
I0213 19:37:34.627677  6127 net.cpp:434] conv7_2 <- conv7_1
I0213 19:37:34.627681  6127 net.cpp:408] conv7_2 -> conv7_2
I0213 19:37:34.629979  6127 net.cpp:150] Setting up conv7_2
I0213 19:37:34.629988  6127 net.cpp:157] Top shape: 8 256 5 5 (51200)
I0213 19:37:34.629992  6127 net.cpp:165] Memory required for data: 1880457280
I0213 19:37:34.629995  6127 layer_factory.hpp:77] Creating layer conv7_2_relu
I0213 19:37:34.629999  6127 net.cpp:100] Creating Layer conv7_2_relu
I0213 19:37:34.630002  6127 net.cpp:434] conv7_2_relu <- conv7_2
I0213 19:37:34.630007  6127 net.cpp:395] conv7_2_relu -> conv7_2 (in-place)
I0213 19:37:34.630115  6127 net.cpp:150] Setting up conv7_2_relu
I0213 19:37:34.630120  6127 net.cpp:157] Top shape: 8 256 5 5 (51200)
I0213 19:37:34.630122  6127 net.cpp:165] Memory required for data: 1880662080
I0213 19:37:34.630125  6127 layer_factory.hpp:77] Creating layer conv7_2_conv7_2_relu_0_split
I0213 19:37:34.630128  6127 net.cpp:100] Creating Layer conv7_2_conv7_2_relu_0_split
I0213 19:37:34.630131  6127 net.cpp:434] conv7_2_conv7_2_relu_0_split <- conv7_2
I0213 19:37:34.630134  6127 net.cpp:408] conv7_2_conv7_2_relu_0_split -> conv7_2_conv7_2_relu_0_split_0
I0213 19:37:34.630138  6127 net.cpp:408] conv7_2_conv7_2_relu_0_split -> conv7_2_conv7_2_relu_0_split_1
I0213 19:37:34.630142  6127 net.cpp:408] conv7_2_conv7_2_relu_0_split -> conv7_2_conv7_2_relu_0_split_2
I0213 19:37:34.630146  6127 net.cpp:408] conv7_2_conv7_2_relu_0_split -> conv7_2_conv7_2_relu_0_split_3
I0213 19:37:34.630198  6127 net.cpp:150] Setting up conv7_2_conv7_2_relu_0_split
I0213 19:37:34.630203  6127 net.cpp:157] Top shape: 8 256 5 5 (51200)
I0213 19:37:34.630205  6127 net.cpp:157] Top shape: 8 256 5 5 (51200)
I0213 19:37:34.630208  6127 net.cpp:157] Top shape: 8 256 5 5 (51200)
I0213 19:37:34.630209  6127 net.cpp:157] Top shape: 8 256 5 5 (51200)
I0213 19:37:34.630211  6127 net.cpp:165] Memory required for data: 1881481280
I0213 19:37:34.630213  6127 layer_factory.hpp:77] Creating layer conv8_1
I0213 19:37:34.630219  6127 net.cpp:100] Creating Layer conv8_1
I0213 19:37:34.630230  6127 net.cpp:434] conv8_1 <- conv7_2_conv7_2_relu_0_split_0
I0213 19:37:34.630235  6127 net.cpp:408] conv8_1 -> conv8_1
I0213 19:37:34.631240  6127 net.cpp:150] Setting up conv8_1
I0213 19:37:34.631248  6127 net.cpp:157] Top shape: 8 128 5 5 (25600)
I0213 19:37:34.631250  6127 net.cpp:165] Memory required for data: 1881583680
I0213 19:37:34.631254  6127 layer_factory.hpp:77] Creating layer conv8_1_relu
I0213 19:37:34.631259  6127 net.cpp:100] Creating Layer conv8_1_relu
I0213 19:37:34.631261  6127 net.cpp:434] conv8_1_relu <- conv8_1
I0213 19:37:34.631265  6127 net.cpp:395] conv8_1_relu -> conv8_1 (in-place)
I0213 19:37:34.631742  6127 net.cpp:150] Setting up conv8_1_relu
I0213 19:37:34.631749  6127 net.cpp:157] Top shape: 8 128 5 5 (25600)
I0213 19:37:34.631752  6127 net.cpp:165] Memory required for data: 1881686080
I0213 19:37:34.631754  6127 layer_factory.hpp:77] Creating layer conv8_2
I0213 19:37:34.631760  6127 net.cpp:100] Creating Layer conv8_2
I0213 19:37:34.631763  6127 net.cpp:434] conv8_2 <- conv8_1
I0213 19:37:34.631767  6127 net.cpp:408] conv8_2 -> conv8_2
I0213 19:37:34.634177  6127 net.cpp:150] Setting up conv8_2
I0213 19:37:34.634194  6127 net.cpp:157] Top shape: 8 256 3 3 (18432)
I0213 19:37:34.634198  6127 net.cpp:165] Memory required for data: 1881759808
I0213 19:37:34.634207  6127 layer_factory.hpp:77] Creating layer conv8_2_relu
I0213 19:37:34.634215  6127 net.cpp:100] Creating Layer conv8_2_relu
I0213 19:37:34.634222  6127 net.cpp:434] conv8_2_relu <- conv8_2
I0213 19:37:34.634230  6127 net.cpp:395] conv8_2_relu -> conv8_2 (in-place)
I0213 19:37:34.634373  6127 net.cpp:150] Setting up conv8_2_relu
I0213 19:37:34.634382  6127 net.cpp:157] Top shape: 8 256 3 3 (18432)
I0213 19:37:34.634383  6127 net.cpp:165] Memory required for data: 1881833536
I0213 19:37:34.634387  6127 layer_factory.hpp:77] Creating layer conv8_2_conv8_2_relu_0_split
I0213 19:37:34.634389  6127 net.cpp:100] Creating Layer conv8_2_conv8_2_relu_0_split
I0213 19:37:34.634392  6127 net.cpp:434] conv8_2_conv8_2_relu_0_split <- conv8_2
I0213 19:37:34.634397  6127 net.cpp:408] conv8_2_conv8_2_relu_0_split -> conv8_2_conv8_2_relu_0_split_0
I0213 19:37:34.634402  6127 net.cpp:408] conv8_2_conv8_2_relu_0_split -> conv8_2_conv8_2_relu_0_split_1
I0213 19:37:34.634407  6127 net.cpp:408] conv8_2_conv8_2_relu_0_split -> conv8_2_conv8_2_relu_0_split_2
I0213 19:37:34.634410  6127 net.cpp:408] conv8_2_conv8_2_relu_0_split -> conv8_2_conv8_2_relu_0_split_3
I0213 19:37:34.634465  6127 net.cpp:150] Setting up conv8_2_conv8_2_relu_0_split
I0213 19:37:34.634470  6127 net.cpp:157] Top shape: 8 256 3 3 (18432)
I0213 19:37:34.634472  6127 net.cpp:157] Top shape: 8 256 3 3 (18432)
I0213 19:37:34.634475  6127 net.cpp:157] Top shape: 8 256 3 3 (18432)
I0213 19:37:34.634477  6127 net.cpp:157] Top shape: 8 256 3 3 (18432)
I0213 19:37:34.634479  6127 net.cpp:165] Memory required for data: 1882128448
I0213 19:37:34.634481  6127 layer_factory.hpp:77] Creating layer conv9_1
I0213 19:37:34.634488  6127 net.cpp:100] Creating Layer conv9_1
I0213 19:37:34.634491  6127 net.cpp:434] conv9_1 <- conv8_2_conv8_2_relu_0_split_0
I0213 19:37:34.634495  6127 net.cpp:408] conv9_1 -> conv9_1
I0213 19:37:34.636117  6127 net.cpp:150] Setting up conv9_1
I0213 19:37:34.636128  6127 net.cpp:157] Top shape: 8 128 3 3 (9216)
I0213 19:37:34.636131  6127 net.cpp:165] Memory required for data: 1882165312
I0213 19:37:34.636135  6127 layer_factory.hpp:77] Creating layer conv9_1_relu
I0213 19:37:34.636140  6127 net.cpp:100] Creating Layer conv9_1_relu
I0213 19:37:34.636143  6127 net.cpp:434] conv9_1_relu <- conv9_1
I0213 19:37:34.636147  6127 net.cpp:395] conv9_1_relu -> conv9_1 (in-place)
I0213 19:37:34.636272  6127 net.cpp:150] Setting up conv9_1_relu
I0213 19:37:34.636278  6127 net.cpp:157] Top shape: 8 128 3 3 (9216)
I0213 19:37:34.636282  6127 net.cpp:165] Memory required for data: 1882202176
I0213 19:37:34.636286  6127 layer_factory.hpp:77] Creating layer conv9_2
I0213 19:37:34.636292  6127 net.cpp:100] Creating Layer conv9_2
I0213 19:37:34.636296  6127 net.cpp:434] conv9_2 <- conv9_1
I0213 19:37:34.636308  6127 net.cpp:408] conv9_2 -> conv9_2
I0213 19:37:34.639319  6127 net.cpp:150] Setting up conv9_2
I0213 19:37:34.639328  6127 net.cpp:157] Top shape: 8 256 1 1 (2048)
I0213 19:37:34.639331  6127 net.cpp:165] Memory required for data: 1882210368
I0213 19:37:34.639335  6127 layer_factory.hpp:77] Creating layer conv9_2_relu
I0213 19:37:34.639340  6127 net.cpp:100] Creating Layer conv9_2_relu
I0213 19:37:34.639343  6127 net.cpp:434] conv9_2_relu <- conv9_2
I0213 19:37:34.639348  6127 net.cpp:395] conv9_2_relu -> conv9_2 (in-place)
I0213 19:37:34.639462  6127 net.cpp:150] Setting up conv9_2_relu
I0213 19:37:34.639467  6127 net.cpp:157] Top shape: 8 256 1 1 (2048)
I0213 19:37:34.639470  6127 net.cpp:165] Memory required for data: 1882218560
I0213 19:37:34.639472  6127 layer_factory.hpp:77] Creating layer conv9_2_conv9_2_relu_0_split
I0213 19:37:34.639477  6127 net.cpp:100] Creating Layer conv9_2_conv9_2_relu_0_split
I0213 19:37:34.639478  6127 net.cpp:434] conv9_2_conv9_2_relu_0_split <- conv9_2
I0213 19:37:34.639482  6127 net.cpp:408] conv9_2_conv9_2_relu_0_split -> conv9_2_conv9_2_relu_0_split_0
I0213 19:37:34.639487  6127 net.cpp:408] conv9_2_conv9_2_relu_0_split -> conv9_2_conv9_2_relu_0_split_1
I0213 19:37:34.639492  6127 net.cpp:408] conv9_2_conv9_2_relu_0_split -> conv9_2_conv9_2_relu_0_split_2
I0213 19:37:34.639534  6127 net.cpp:150] Setting up conv9_2_conv9_2_relu_0_split
I0213 19:37:34.639539  6127 net.cpp:157] Top shape: 8 256 1 1 (2048)
I0213 19:37:34.639541  6127 net.cpp:157] Top shape: 8 256 1 1 (2048)
I0213 19:37:34.639544  6127 net.cpp:157] Top shape: 8 256 1 1 (2048)
I0213 19:37:34.639545  6127 net.cpp:165] Memory required for data: 1882243136
I0213 19:37:34.639549  6127 layer_factory.hpp:77] Creating layer conv4_3_norm
I0213 19:37:34.639552  6127 net.cpp:100] Creating Layer conv4_3_norm
I0213 19:37:34.639555  6127 net.cpp:434] conv4_3_norm <- conv4_3_relu4_3_0_split_1
I0213 19:37:34.639560  6127 net.cpp:408] conv4_3_norm -> conv4_3_norm
I0213 19:37:34.639689  6127 net.cpp:150] Setting up conv4_3_norm
I0213 19:37:34.639693  6127 net.cpp:157] Top shape: 8 512 38 38 (5914624)
I0213 19:37:34.639696  6127 net.cpp:165] Memory required for data: 1905901632
I0213 19:37:34.639699  6127 layer_factory.hpp:77] Creating layer conv4_3_norm_conv4_3_norm_0_split
I0213 19:37:34.639703  6127 net.cpp:100] Creating Layer conv4_3_norm_conv4_3_norm_0_split
I0213 19:37:34.639705  6127 net.cpp:434] conv4_3_norm_conv4_3_norm_0_split <- conv4_3_norm
I0213 19:37:34.639708  6127 net.cpp:408] conv4_3_norm_conv4_3_norm_0_split -> conv4_3_norm_conv4_3_norm_0_split_0
I0213 19:37:34.639713  6127 net.cpp:408] conv4_3_norm_conv4_3_norm_0_split -> conv4_3_norm_conv4_3_norm_0_split_1
I0213 19:37:34.639716  6127 net.cpp:408] conv4_3_norm_conv4_3_norm_0_split -> conv4_3_norm_conv4_3_norm_0_split_2
I0213 19:37:34.639766  6127 net.cpp:150] Setting up conv4_3_norm_conv4_3_norm_0_split
I0213 19:37:34.639771  6127 net.cpp:157] Top shape: 8 512 38 38 (5914624)
I0213 19:37:34.639775  6127 net.cpp:157] Top shape: 8 512 38 38 (5914624)
I0213 19:37:34.639776  6127 net.cpp:157] Top shape: 8 512 38 38 (5914624)
I0213 19:37:34.639778  6127 net.cpp:165] Memory required for data: 1976877120
I0213 19:37:34.639780  6127 layer_factory.hpp:77] Creating layer conv4_3_norm_mbox_loc
I0213 19:37:34.639787  6127 net.cpp:100] Creating Layer conv4_3_norm_mbox_loc
I0213 19:37:34.639791  6127 net.cpp:434] conv4_3_norm_mbox_loc <- conv4_3_norm_conv4_3_norm_0_split_0
I0213 19:37:34.639793  6127 net.cpp:408] conv4_3_norm_mbox_loc -> conv4_3_norm_mbox_loc
I0213 19:37:34.641273  6127 net.cpp:150] Setting up conv4_3_norm_mbox_loc
I0213 19:37:34.641281  6127 net.cpp:157] Top shape: 8 16 38 38 (184832)
I0213 19:37:34.641283  6127 net.cpp:165] Memory required for data: 1977616448
I0213 19:37:34.641288  6127 layer_factory.hpp:77] Creating layer conv4_3_norm_mbox_loc_perm
I0213 19:37:34.641294  6127 net.cpp:100] Creating Layer conv4_3_norm_mbox_loc_perm
I0213 19:37:34.641297  6127 net.cpp:434] conv4_3_norm_mbox_loc_perm <- conv4_3_norm_mbox_loc
I0213 19:37:34.641310  6127 net.cpp:408] conv4_3_norm_mbox_loc_perm -> conv4_3_norm_mbox_loc_perm
I0213 19:37:34.641396  6127 net.cpp:150] Setting up conv4_3_norm_mbox_loc_perm
I0213 19:37:34.641402  6127 net.cpp:157] Top shape: 8 38 38 16 (184832)
I0213 19:37:34.641403  6127 net.cpp:165] Memory required for data: 1978355776
I0213 19:37:34.641405  6127 layer_factory.hpp:77] Creating layer conv4_3_norm_mbox_loc_flat
I0213 19:37:34.641409  6127 net.cpp:100] Creating Layer conv4_3_norm_mbox_loc_flat
I0213 19:37:34.641412  6127 net.cpp:434] conv4_3_norm_mbox_loc_flat <- conv4_3_norm_mbox_loc_perm
I0213 19:37:34.641415  6127 net.cpp:408] conv4_3_norm_mbox_loc_flat -> conv4_3_norm_mbox_loc_flat
I0213 19:37:34.641438  6127 net.cpp:150] Setting up conv4_3_norm_mbox_loc_flat
I0213 19:37:34.641441  6127 net.cpp:157] Top shape: 8 23104 (184832)
I0213 19:37:34.641443  6127 net.cpp:165] Memory required for data: 1979095104
I0213 19:37:34.641445  6127 layer_factory.hpp:77] Creating layer conv4_3_norm_mbox_conf
I0213 19:37:34.641455  6127 net.cpp:100] Creating Layer conv4_3_norm_mbox_conf
I0213 19:37:34.641458  6127 net.cpp:434] conv4_3_norm_mbox_conf <- conv4_3_norm_conv4_3_norm_0_split_1
I0213 19:37:34.641463  6127 net.cpp:408] conv4_3_norm_mbox_conf -> conv4_3_norm_mbox_conf
I0213 19:37:34.644403  6127 net.cpp:150] Setting up conv4_3_norm_mbox_conf
I0213 19:37:34.644413  6127 net.cpp:157] Top shape: 8 84 38 38 (970368)
I0213 19:37:34.644417  6127 net.cpp:165] Memory required for data: 1982976576
I0213 19:37:34.644420  6127 layer_factory.hpp:77] Creating layer conv4_3_norm_mbox_conf_perm
I0213 19:37:34.644425  6127 net.cpp:100] Creating Layer conv4_3_norm_mbox_conf_perm
I0213 19:37:34.644428  6127 net.cpp:434] conv4_3_norm_mbox_conf_perm <- conv4_3_norm_mbox_conf
I0213 19:37:34.644433  6127 net.cpp:408] conv4_3_norm_mbox_conf_perm -> conv4_3_norm_mbox_conf_perm
I0213 19:37:34.644518  6127 net.cpp:150] Setting up conv4_3_norm_mbox_conf_perm
I0213 19:37:34.644522  6127 net.cpp:157] Top shape: 8 38 38 84 (970368)
I0213 19:37:34.644525  6127 net.cpp:165] Memory required for data: 1986858048
I0213 19:37:34.644526  6127 layer_factory.hpp:77] Creating layer conv4_3_norm_mbox_conf_flat
I0213 19:37:34.644531  6127 net.cpp:100] Creating Layer conv4_3_norm_mbox_conf_flat
I0213 19:37:34.644532  6127 net.cpp:434] conv4_3_norm_mbox_conf_flat <- conv4_3_norm_mbox_conf_perm
I0213 19:37:34.644536  6127 net.cpp:408] conv4_3_norm_mbox_conf_flat -> conv4_3_norm_mbox_conf_flat
I0213 19:37:34.644554  6127 net.cpp:150] Setting up conv4_3_norm_mbox_conf_flat
I0213 19:37:34.644557  6127 net.cpp:157] Top shape: 8 121296 (970368)
I0213 19:37:34.644559  6127 net.cpp:165] Memory required for data: 1990739520
I0213 19:37:34.644562  6127 layer_factory.hpp:77] Creating layer conv4_3_norm_mbox_priorbox
I0213 19:37:34.644565  6127 net.cpp:100] Creating Layer conv4_3_norm_mbox_priorbox
I0213 19:37:34.644567  6127 net.cpp:434] conv4_3_norm_mbox_priorbox <- conv4_3_norm_conv4_3_norm_0_split_2
I0213 19:37:34.644572  6127 net.cpp:434] conv4_3_norm_mbox_priorbox <- data_data_0_split_1
I0213 19:37:34.644577  6127 net.cpp:408] conv4_3_norm_mbox_priorbox -> conv4_3_norm_mbox_priorbox
I0213 19:37:34.644596  6127 net.cpp:150] Setting up conv4_3_norm_mbox_priorbox
I0213 19:37:34.644600  6127 net.cpp:157] Top shape: 1 2 23104 (46208)
I0213 19:37:34.644603  6127 net.cpp:165] Memory required for data: 1990924352
I0213 19:37:34.644604  6127 layer_factory.hpp:77] Creating layer fc7_mbox_loc
I0213 19:37:34.644609  6127 net.cpp:100] Creating Layer fc7_mbox_loc
I0213 19:37:34.644613  6127 net.cpp:434] fc7_mbox_loc <- fc7_relu7_0_split_1
I0213 19:37:34.644616  6127 net.cpp:408] fc7_mbox_loc -> fc7_mbox_loc
I0213 19:37:34.646579  6127 net.cpp:150] Setting up fc7_mbox_loc
I0213 19:37:34.646585  6127 net.cpp:157] Top shape: 8 24 19 19 (69312)
I0213 19:37:34.646589  6127 net.cpp:165] Memory required for data: 1991201600
I0213 19:37:34.646594  6127 layer_factory.hpp:77] Creating layer fc7_mbox_loc_perm
I0213 19:37:34.646597  6127 net.cpp:100] Creating Layer fc7_mbox_loc_perm
I0213 19:37:34.646610  6127 net.cpp:434] fc7_mbox_loc_perm <- fc7_mbox_loc
I0213 19:37:34.646615  6127 net.cpp:408] fc7_mbox_loc_perm -> fc7_mbox_loc_perm
I0213 19:37:34.646700  6127 net.cpp:150] Setting up fc7_mbox_loc_perm
I0213 19:37:34.646705  6127 net.cpp:157] Top shape: 8 19 19 24 (69312)
I0213 19:37:34.646708  6127 net.cpp:165] Memory required for data: 1991478848
I0213 19:37:34.646709  6127 layer_factory.hpp:77] Creating layer fc7_mbox_loc_flat
I0213 19:37:34.646713  6127 net.cpp:100] Creating Layer fc7_mbox_loc_flat
I0213 19:37:34.646715  6127 net.cpp:434] fc7_mbox_loc_flat <- fc7_mbox_loc_perm
I0213 19:37:34.646718  6127 net.cpp:408] fc7_mbox_loc_flat -> fc7_mbox_loc_flat
I0213 19:37:34.646735  6127 net.cpp:150] Setting up fc7_mbox_loc_flat
I0213 19:37:34.646739  6127 net.cpp:157] Top shape: 8 8664 (69312)
I0213 19:37:34.646740  6127 net.cpp:165] Memory required for data: 1991756096
I0213 19:37:34.646742  6127 layer_factory.hpp:77] Creating layer fc7_mbox_conf
I0213 19:37:34.646749  6127 net.cpp:100] Creating Layer fc7_mbox_conf
I0213 19:37:34.646751  6127 net.cpp:434] fc7_mbox_conf <- fc7_relu7_0_split_2
I0213 19:37:34.646755  6127 net.cpp:408] fc7_mbox_conf -> fc7_mbox_conf
I0213 19:37:34.652568  6127 net.cpp:150] Setting up fc7_mbox_conf
I0213 19:37:34.652582  6127 net.cpp:157] Top shape: 8 126 19 19 (363888)
I0213 19:37:34.652585  6127 net.cpp:165] Memory required for data: 1993211648
I0213 19:37:34.652590  6127 layer_factory.hpp:77] Creating layer fc7_mbox_conf_perm
I0213 19:37:34.652596  6127 net.cpp:100] Creating Layer fc7_mbox_conf_perm
I0213 19:37:34.652601  6127 net.cpp:434] fc7_mbox_conf_perm <- fc7_mbox_conf
I0213 19:37:34.652606  6127 net.cpp:408] fc7_mbox_conf_perm -> fc7_mbox_conf_perm
I0213 19:37:34.652695  6127 net.cpp:150] Setting up fc7_mbox_conf_perm
I0213 19:37:34.652699  6127 net.cpp:157] Top shape: 8 19 19 126 (363888)
I0213 19:37:34.652701  6127 net.cpp:165] Memory required for data: 1994667200
I0213 19:37:34.652704  6127 layer_factory.hpp:77] Creating layer fc7_mbox_conf_flat
I0213 19:37:34.652709  6127 net.cpp:100] Creating Layer fc7_mbox_conf_flat
I0213 19:37:34.652710  6127 net.cpp:434] fc7_mbox_conf_flat <- fc7_mbox_conf_perm
I0213 19:37:34.652714  6127 net.cpp:408] fc7_mbox_conf_flat -> fc7_mbox_conf_flat
I0213 19:37:34.652732  6127 net.cpp:150] Setting up fc7_mbox_conf_flat
I0213 19:37:34.652735  6127 net.cpp:157] Top shape: 8 45486 (363888)
I0213 19:37:34.652737  6127 net.cpp:165] Memory required for data: 1996122752
I0213 19:37:34.652740  6127 layer_factory.hpp:77] Creating layer fc7_mbox_priorbox
I0213 19:37:34.652745  6127 net.cpp:100] Creating Layer fc7_mbox_priorbox
I0213 19:37:34.652746  6127 net.cpp:434] fc7_mbox_priorbox <- fc7_relu7_0_split_3
I0213 19:37:34.652750  6127 net.cpp:434] fc7_mbox_priorbox <- data_data_0_split_2
I0213 19:37:34.652753  6127 net.cpp:408] fc7_mbox_priorbox -> fc7_mbox_priorbox
I0213 19:37:34.652772  6127 net.cpp:150] Setting up fc7_mbox_priorbox
I0213 19:37:34.652776  6127 net.cpp:157] Top shape: 1 2 8664 (17328)
I0213 19:37:34.652778  6127 net.cpp:165] Memory required for data: 1996192064
I0213 19:37:34.652781  6127 layer_factory.hpp:77] Creating layer conv6_2_mbox_loc
I0213 19:37:34.652786  6127 net.cpp:100] Creating Layer conv6_2_mbox_loc
I0213 19:37:34.652789  6127 net.cpp:434] conv6_2_mbox_loc <- conv6_2_conv6_2_relu_0_split_1
I0213 19:37:34.652794  6127 net.cpp:408] conv6_2_mbox_loc -> conv6_2_mbox_loc
I0213 19:37:34.655827  6127 net.cpp:150] Setting up conv6_2_mbox_loc
I0213 19:37:34.655838  6127 net.cpp:157] Top shape: 8 24 10 10 (19200)
I0213 19:37:34.655840  6127 net.cpp:165] Memory required for data: 1996268864
I0213 19:37:34.655848  6127 layer_factory.hpp:77] Creating layer conv6_2_mbox_loc_perm
I0213 19:37:34.655853  6127 net.cpp:100] Creating Layer conv6_2_mbox_loc_perm
I0213 19:37:34.655856  6127 net.cpp:434] conv6_2_mbox_loc_perm <- conv6_2_mbox_loc
I0213 19:37:34.655861  6127 net.cpp:408] conv6_2_mbox_loc_perm -> conv6_2_mbox_loc_perm
I0213 19:37:34.655953  6127 net.cpp:150] Setting up conv6_2_mbox_loc_perm
I0213 19:37:34.655956  6127 net.cpp:157] Top shape: 8 10 10 24 (19200)
I0213 19:37:34.655971  6127 net.cpp:165] Memory required for data: 1996345664
I0213 19:37:34.655972  6127 layer_factory.hpp:77] Creating layer conv6_2_mbox_loc_flat
I0213 19:37:34.655977  6127 net.cpp:100] Creating Layer conv6_2_mbox_loc_flat
I0213 19:37:34.655979  6127 net.cpp:434] conv6_2_mbox_loc_flat <- conv6_2_mbox_loc_perm
I0213 19:37:34.655985  6127 net.cpp:408] conv6_2_mbox_loc_flat -> conv6_2_mbox_loc_flat
I0213 19:37:34.656004  6127 net.cpp:150] Setting up conv6_2_mbox_loc_flat
I0213 19:37:34.656008  6127 net.cpp:157] Top shape: 8 2400 (19200)
I0213 19:37:34.656010  6127 net.cpp:165] Memory required for data: 1996422464
I0213 19:37:34.656013  6127 layer_factory.hpp:77] Creating layer conv6_2_mbox_conf
I0213 19:37:34.656018  6127 net.cpp:100] Creating Layer conv6_2_mbox_conf
I0213 19:37:34.656021  6127 net.cpp:434] conv6_2_mbox_conf <- conv6_2_conv6_2_relu_0_split_2
I0213 19:37:34.656025  6127 net.cpp:408] conv6_2_mbox_conf -> conv6_2_mbox_conf
I0213 19:37:34.660348  6127 net.cpp:150] Setting up conv6_2_mbox_conf
I0213 19:37:34.660361  6127 net.cpp:157] Top shape: 8 126 10 10 (100800)
I0213 19:37:34.660362  6127 net.cpp:165] Memory required for data: 1996825664
I0213 19:37:34.660368  6127 layer_factory.hpp:77] Creating layer conv6_2_mbox_conf_perm
I0213 19:37:34.660374  6127 net.cpp:100] Creating Layer conv6_2_mbox_conf_perm
I0213 19:37:34.660377  6127 net.cpp:434] conv6_2_mbox_conf_perm <- conv6_2_mbox_conf
I0213 19:37:34.660382  6127 net.cpp:408] conv6_2_mbox_conf_perm -> conv6_2_mbox_conf_perm
I0213 19:37:34.660473  6127 net.cpp:150] Setting up conv6_2_mbox_conf_perm
I0213 19:37:34.660477  6127 net.cpp:157] Top shape: 8 10 10 126 (100800)
I0213 19:37:34.660480  6127 net.cpp:165] Memory required for data: 1997228864
I0213 19:37:34.660481  6127 layer_factory.hpp:77] Creating layer conv6_2_mbox_conf_flat
I0213 19:37:34.660485  6127 net.cpp:100] Creating Layer conv6_2_mbox_conf_flat
I0213 19:37:34.660487  6127 net.cpp:434] conv6_2_mbox_conf_flat <- conv6_2_mbox_conf_perm
I0213 19:37:34.660491  6127 net.cpp:408] conv6_2_mbox_conf_flat -> conv6_2_mbox_conf_flat
I0213 19:37:34.660508  6127 net.cpp:150] Setting up conv6_2_mbox_conf_flat
I0213 19:37:34.660512  6127 net.cpp:157] Top shape: 8 12600 (100800)
I0213 19:37:34.660514  6127 net.cpp:165] Memory required for data: 1997632064
I0213 19:37:34.660516  6127 layer_factory.hpp:77] Creating layer conv6_2_mbox_priorbox
I0213 19:37:34.660521  6127 net.cpp:100] Creating Layer conv6_2_mbox_priorbox
I0213 19:37:34.660524  6127 net.cpp:434] conv6_2_mbox_priorbox <- conv6_2_conv6_2_relu_0_split_3
I0213 19:37:34.660527  6127 net.cpp:434] conv6_2_mbox_priorbox <- data_data_0_split_3
I0213 19:37:34.660531  6127 net.cpp:408] conv6_2_mbox_priorbox -> conv6_2_mbox_priorbox
I0213 19:37:34.660552  6127 net.cpp:150] Setting up conv6_2_mbox_priorbox
I0213 19:37:34.660555  6127 net.cpp:157] Top shape: 1 2 2400 (4800)
I0213 19:37:34.660557  6127 net.cpp:165] Memory required for data: 1997651264
I0213 19:37:34.660559  6127 layer_factory.hpp:77] Creating layer conv7_2_mbox_loc
I0213 19:37:34.660567  6127 net.cpp:100] Creating Layer conv7_2_mbox_loc
I0213 19:37:34.660568  6127 net.cpp:434] conv7_2_mbox_loc <- conv7_2_conv7_2_relu_0_split_1
I0213 19:37:34.660573  6127 net.cpp:408] conv7_2_mbox_loc -> conv7_2_mbox_loc
I0213 19:37:34.661321  6127 net.cpp:150] Setting up conv7_2_mbox_loc
I0213 19:37:34.661327  6127 net.cpp:157] Top shape: 8 24 5 5 (4800)
I0213 19:37:34.661330  6127 net.cpp:165] Memory required for data: 1997670464
I0213 19:37:34.661334  6127 layer_factory.hpp:77] Creating layer conv7_2_mbox_loc_perm
I0213 19:37:34.661339  6127 net.cpp:100] Creating Layer conv7_2_mbox_loc_perm
I0213 19:37:34.661341  6127 net.cpp:434] conv7_2_mbox_loc_perm <- conv7_2_mbox_loc
I0213 19:37:34.661345  6127 net.cpp:408] conv7_2_mbox_loc_perm -> conv7_2_mbox_loc_perm
I0213 19:37:34.661428  6127 net.cpp:150] Setting up conv7_2_mbox_loc_perm
I0213 19:37:34.661432  6127 net.cpp:157] Top shape: 8 5 5 24 (4800)
I0213 19:37:34.661434  6127 net.cpp:165] Memory required for data: 1997689664
I0213 19:37:34.661448  6127 layer_factory.hpp:77] Creating layer conv7_2_mbox_loc_flat
I0213 19:37:34.661451  6127 net.cpp:100] Creating Layer conv7_2_mbox_loc_flat
I0213 19:37:34.661453  6127 net.cpp:434] conv7_2_mbox_loc_flat <- conv7_2_mbox_loc_perm
I0213 19:37:34.661458  6127 net.cpp:408] conv7_2_mbox_loc_flat -> conv7_2_mbox_loc_flat
I0213 19:37:34.661478  6127 net.cpp:150] Setting up conv7_2_mbox_loc_flat
I0213 19:37:34.661480  6127 net.cpp:157] Top shape: 8 600 (4800)
I0213 19:37:34.661483  6127 net.cpp:165] Memory required for data: 1997708864
I0213 19:37:34.661484  6127 layer_factory.hpp:77] Creating layer conv7_2_mbox_conf
I0213 19:37:34.661490  6127 net.cpp:100] Creating Layer conv7_2_mbox_conf
I0213 19:37:34.661492  6127 net.cpp:434] conv7_2_mbox_conf <- conv7_2_conv7_2_relu_0_split_2
I0213 19:37:34.661496  6127 net.cpp:408] conv7_2_mbox_conf -> conv7_2_mbox_conf
I0213 19:37:34.664203  6127 net.cpp:150] Setting up conv7_2_mbox_conf
I0213 19:37:34.664216  6127 net.cpp:157] Top shape: 8 126 5 5 (25200)
I0213 19:37:34.664217  6127 net.cpp:165] Memory required for data: 1997809664
I0213 19:37:34.664222  6127 layer_factory.hpp:77] Creating layer conv7_2_mbox_conf_perm
I0213 19:37:34.664229  6127 net.cpp:100] Creating Layer conv7_2_mbox_conf_perm
I0213 19:37:34.664233  6127 net.cpp:434] conv7_2_mbox_conf_perm <- conv7_2_mbox_conf
I0213 19:37:34.664237  6127 net.cpp:408] conv7_2_mbox_conf_perm -> conv7_2_mbox_conf_perm
I0213 19:37:34.664366  6127 net.cpp:150] Setting up conv7_2_mbox_conf_perm
I0213 19:37:34.664373  6127 net.cpp:157] Top shape: 8 5 5 126 (25200)
I0213 19:37:34.664377  6127 net.cpp:165] Memory required for data: 1997910464
I0213 19:37:34.664379  6127 layer_factory.hpp:77] Creating layer conv7_2_mbox_conf_flat
I0213 19:37:34.664383  6127 net.cpp:100] Creating Layer conv7_2_mbox_conf_flat
I0213 19:37:34.664386  6127 net.cpp:434] conv7_2_mbox_conf_flat <- conv7_2_mbox_conf_perm
I0213 19:37:34.664391  6127 net.cpp:408] conv7_2_mbox_conf_flat -> conv7_2_mbox_conf_flat
I0213 19:37:34.664415  6127 net.cpp:150] Setting up conv7_2_mbox_conf_flat
I0213 19:37:34.664423  6127 net.cpp:157] Top shape: 8 3150 (25200)
I0213 19:37:34.664427  6127 net.cpp:165] Memory required for data: 1998011264
I0213 19:37:34.664430  6127 layer_factory.hpp:77] Creating layer conv7_2_mbox_priorbox
I0213 19:37:34.664438  6127 net.cpp:100] Creating Layer conv7_2_mbox_priorbox
I0213 19:37:34.664443  6127 net.cpp:434] conv7_2_mbox_priorbox <- conv7_2_conv7_2_relu_0_split_3
I0213 19:37:34.664449  6127 net.cpp:434] conv7_2_mbox_priorbox <- data_data_0_split_4
I0213 19:37:34.664458  6127 net.cpp:408] conv7_2_mbox_priorbox -> conv7_2_mbox_priorbox
I0213 19:37:34.664494  6127 net.cpp:150] Setting up conv7_2_mbox_priorbox
I0213 19:37:34.664500  6127 net.cpp:157] Top shape: 1 2 600 (1200)
I0213 19:37:34.664504  6127 net.cpp:165] Memory required for data: 1998016064
I0213 19:37:34.664506  6127 layer_factory.hpp:77] Creating layer conv8_2_mbox_loc
I0213 19:37:34.664518  6127 net.cpp:100] Creating Layer conv8_2_mbox_loc
I0213 19:37:34.664522  6127 net.cpp:434] conv8_2_mbox_loc <- conv8_2_conv8_2_relu_0_split_1
I0213 19:37:34.664527  6127 net.cpp:408] conv8_2_mbox_loc -> conv8_2_mbox_loc
I0213 19:37:34.666033  6127 net.cpp:150] Setting up conv8_2_mbox_loc
I0213 19:37:34.666043  6127 net.cpp:157] Top shape: 8 16 3 3 (1152)
I0213 19:37:34.666046  6127 net.cpp:165] Memory required for data: 1998020672
I0213 19:37:34.666057  6127 layer_factory.hpp:77] Creating layer conv8_2_mbox_loc_perm
I0213 19:37:34.666062  6127 net.cpp:100] Creating Layer conv8_2_mbox_loc_perm
I0213 19:37:34.666066  6127 net.cpp:434] conv8_2_mbox_loc_perm <- conv8_2_mbox_loc
I0213 19:37:34.666070  6127 net.cpp:408] conv8_2_mbox_loc_perm -> conv8_2_mbox_loc_perm
I0213 19:37:34.666162  6127 net.cpp:150] Setting up conv8_2_mbox_loc_perm
I0213 19:37:34.666167  6127 net.cpp:157] Top shape: 8 3 3 16 (1152)
I0213 19:37:34.666168  6127 net.cpp:165] Memory required for data: 1998025280
I0213 19:37:34.666170  6127 layer_factory.hpp:77] Creating layer conv8_2_mbox_loc_flat
I0213 19:37:34.666182  6127 net.cpp:100] Creating Layer conv8_2_mbox_loc_flat
I0213 19:37:34.666184  6127 net.cpp:434] conv8_2_mbox_loc_flat <- conv8_2_mbox_loc_perm
I0213 19:37:34.666188  6127 net.cpp:408] conv8_2_mbox_loc_flat -> conv8_2_mbox_loc_flat
I0213 19:37:34.666208  6127 net.cpp:150] Setting up conv8_2_mbox_loc_flat
I0213 19:37:34.666211  6127 net.cpp:157] Top shape: 8 144 (1152)
I0213 19:37:34.666213  6127 net.cpp:165] Memory required for data: 1998029888
I0213 19:37:34.666215  6127 layer_factory.hpp:77] Creating layer conv8_2_mbox_conf
I0213 19:37:34.666221  6127 net.cpp:100] Creating Layer conv8_2_mbox_conf
I0213 19:37:34.666224  6127 net.cpp:434] conv8_2_mbox_conf <- conv8_2_conv8_2_relu_0_split_2
I0213 19:37:34.666229  6127 net.cpp:408] conv8_2_mbox_conf -> conv8_2_mbox_conf
I0213 19:37:34.668133  6127 net.cpp:150] Setting up conv8_2_mbox_conf
I0213 19:37:34.668140  6127 net.cpp:157] Top shape: 8 84 3 3 (6048)
I0213 19:37:34.668143  6127 net.cpp:165] Memory required for data: 1998054080
I0213 19:37:34.668148  6127 layer_factory.hpp:77] Creating layer conv8_2_mbox_conf_perm
I0213 19:37:34.668154  6127 net.cpp:100] Creating Layer conv8_2_mbox_conf_perm
I0213 19:37:34.668155  6127 net.cpp:434] conv8_2_mbox_conf_perm <- conv8_2_mbox_conf
I0213 19:37:34.668159  6127 net.cpp:408] conv8_2_mbox_conf_perm -> conv8_2_mbox_conf_perm
I0213 19:37:34.668249  6127 net.cpp:150] Setting up conv8_2_mbox_conf_perm
I0213 19:37:34.668253  6127 net.cpp:157] Top shape: 8 3 3 84 (6048)
I0213 19:37:34.668256  6127 net.cpp:165] Memory required for data: 1998078272
I0213 19:37:34.668257  6127 layer_factory.hpp:77] Creating layer conv8_2_mbox_conf_flat
I0213 19:37:34.668261  6127 net.cpp:100] Creating Layer conv8_2_mbox_conf_flat
I0213 19:37:34.668263  6127 net.cpp:434] conv8_2_mbox_conf_flat <- conv8_2_mbox_conf_perm
I0213 19:37:34.668267  6127 net.cpp:408] conv8_2_mbox_conf_flat -> conv8_2_mbox_conf_flat
I0213 19:37:34.668284  6127 net.cpp:150] Setting up conv8_2_mbox_conf_flat
I0213 19:37:34.668288  6127 net.cpp:157] Top shape: 8 756 (6048)
I0213 19:37:34.668290  6127 net.cpp:165] Memory required for data: 1998102464
I0213 19:37:34.668292  6127 layer_factory.hpp:77] Creating layer conv8_2_mbox_priorbox
I0213 19:37:34.668296  6127 net.cpp:100] Creating Layer conv8_2_mbox_priorbox
I0213 19:37:34.668298  6127 net.cpp:434] conv8_2_mbox_priorbox <- conv8_2_conv8_2_relu_0_split_3
I0213 19:37:34.668301  6127 net.cpp:434] conv8_2_mbox_priorbox <- data_data_0_split_5
I0213 19:37:34.668305  6127 net.cpp:408] conv8_2_mbox_priorbox -> conv8_2_mbox_priorbox
I0213 19:37:34.668324  6127 net.cpp:150] Setting up conv8_2_mbox_priorbox
I0213 19:37:34.668329  6127 net.cpp:157] Top shape: 1 2 144 (288)
I0213 19:37:34.668330  6127 net.cpp:165] Memory required for data: 1998103616
I0213 19:37:34.668332  6127 layer_factory.hpp:77] Creating layer conv9_2_mbox_loc
I0213 19:37:34.668339  6127 net.cpp:100] Creating Layer conv9_2_mbox_loc
I0213 19:37:34.668340  6127 net.cpp:434] conv9_2_mbox_loc <- conv9_2_conv9_2_relu_0_split_0
I0213 19:37:34.668344  6127 net.cpp:408] conv9_2_mbox_loc -> conv9_2_mbox_loc
I0213 19:37:34.669742  6127 net.cpp:150] Setting up conv9_2_mbox_loc
I0213 19:37:34.669749  6127 net.cpp:157] Top shape: 8 16 1 1 (128)
I0213 19:37:34.669752  6127 net.cpp:165] Memory required for data: 1998104128
I0213 19:37:34.669756  6127 layer_factory.hpp:77] Creating layer conv9_2_mbox_loc_perm
I0213 19:37:34.669760  6127 net.cpp:100] Creating Layer conv9_2_mbox_loc_perm
I0213 19:37:34.669764  6127 net.cpp:434] conv9_2_mbox_loc_perm <- conv9_2_mbox_loc
I0213 19:37:34.669769  6127 net.cpp:408] conv9_2_mbox_loc_perm -> conv9_2_mbox_loc_perm
I0213 19:37:34.669853  6127 net.cpp:150] Setting up conv9_2_mbox_loc_perm
I0213 19:37:34.669857  6127 net.cpp:157] Top shape: 8 1 1 16 (128)
I0213 19:37:34.669859  6127 net.cpp:165] Memory required for data: 1998104640
I0213 19:37:34.669862  6127 layer_factory.hpp:77] Creating layer conv9_2_mbox_loc_flat
I0213 19:37:34.669864  6127 net.cpp:100] Creating Layer conv9_2_mbox_loc_flat
I0213 19:37:34.669867  6127 net.cpp:434] conv9_2_mbox_loc_flat <- conv9_2_mbox_loc_perm
I0213 19:37:34.669879  6127 net.cpp:408] conv9_2_mbox_loc_flat -> conv9_2_mbox_loc_flat
I0213 19:37:34.669898  6127 net.cpp:150] Setting up conv9_2_mbox_loc_flat
I0213 19:37:34.669901  6127 net.cpp:157] Top shape: 8 16 (128)
I0213 19:37:34.669903  6127 net.cpp:165] Memory required for data: 1998105152
I0213 19:37:34.669905  6127 layer_factory.hpp:77] Creating layer conv9_2_mbox_conf
I0213 19:37:34.669911  6127 net.cpp:100] Creating Layer conv9_2_mbox_conf
I0213 19:37:34.669914  6127 net.cpp:434] conv9_2_mbox_conf <- conv9_2_conv9_2_relu_0_split_1
I0213 19:37:34.669917  6127 net.cpp:408] conv9_2_mbox_conf -> conv9_2_mbox_conf
I0213 19:37:34.671826  6127 net.cpp:150] Setting up conv9_2_mbox_conf
I0213 19:37:34.671834  6127 net.cpp:157] Top shape: 8 84 1 1 (672)
I0213 19:37:34.671836  6127 net.cpp:165] Memory required for data: 1998107840
I0213 19:37:34.671841  6127 layer_factory.hpp:77] Creating layer conv9_2_mbox_conf_perm
I0213 19:37:34.671845  6127 net.cpp:100] Creating Layer conv9_2_mbox_conf_perm
I0213 19:37:34.671849  6127 net.cpp:434] conv9_2_mbox_conf_perm <- conv9_2_mbox_conf
I0213 19:37:34.671852  6127 net.cpp:408] conv9_2_mbox_conf_perm -> conv9_2_mbox_conf_perm
I0213 19:37:34.671943  6127 net.cpp:150] Setting up conv9_2_mbox_conf_perm
I0213 19:37:34.671947  6127 net.cpp:157] Top shape: 8 1 1 84 (672)
I0213 19:37:34.671949  6127 net.cpp:165] Memory required for data: 1998110528
I0213 19:37:34.671952  6127 layer_factory.hpp:77] Creating layer conv9_2_mbox_conf_flat
I0213 19:37:34.671957  6127 net.cpp:100] Creating Layer conv9_2_mbox_conf_flat
I0213 19:37:34.671959  6127 net.cpp:434] conv9_2_mbox_conf_flat <- conv9_2_mbox_conf_perm
I0213 19:37:34.671962  6127 net.cpp:408] conv9_2_mbox_conf_flat -> conv9_2_mbox_conf_flat
I0213 19:37:34.671980  6127 net.cpp:150] Setting up conv9_2_mbox_conf_flat
I0213 19:37:34.671983  6127 net.cpp:157] Top shape: 8 84 (672)
I0213 19:37:34.671985  6127 net.cpp:165] Memory required for data: 1998113216
I0213 19:37:34.671988  6127 layer_factory.hpp:77] Creating layer conv9_2_mbox_priorbox
I0213 19:37:34.671993  6127 net.cpp:100] Creating Layer conv9_2_mbox_priorbox
I0213 19:37:34.671995  6127 net.cpp:434] conv9_2_mbox_priorbox <- conv9_2_conv9_2_relu_0_split_2
I0213 19:37:34.671998  6127 net.cpp:434] conv9_2_mbox_priorbox <- data_data_0_split_6
I0213 19:37:34.672001  6127 net.cpp:408] conv9_2_mbox_priorbox -> conv9_2_mbox_priorbox
I0213 19:37:34.672020  6127 net.cpp:150] Setting up conv9_2_mbox_priorbox
I0213 19:37:34.672024  6127 net.cpp:157] Top shape: 1 2 16 (32)
I0213 19:37:34.672025  6127 net.cpp:165] Memory required for data: 1998113344
I0213 19:37:34.672027  6127 layer_factory.hpp:77] Creating layer mbox_loc
I0213 19:37:34.672032  6127 net.cpp:100] Creating Layer mbox_loc
I0213 19:37:34.672035  6127 net.cpp:434] mbox_loc <- conv4_3_norm_mbox_loc_flat
I0213 19:37:34.672039  6127 net.cpp:434] mbox_loc <- fc7_mbox_loc_flat
I0213 19:37:34.672042  6127 net.cpp:434] mbox_loc <- conv6_2_mbox_loc_flat
I0213 19:37:34.672045  6127 net.cpp:434] mbox_loc <- conv7_2_mbox_loc_flat
I0213 19:37:34.672047  6127 net.cpp:434] mbox_loc <- conv8_2_mbox_loc_flat
I0213 19:37:34.672050  6127 net.cpp:434] mbox_loc <- conv9_2_mbox_loc_flat
I0213 19:37:34.672053  6127 net.cpp:408] mbox_loc -> mbox_loc
I0213 19:37:34.672072  6127 net.cpp:150] Setting up mbox_loc
I0213 19:37:34.672075  6127 net.cpp:157] Top shape: 8 34928 (279424)
I0213 19:37:34.672077  6127 net.cpp:165] Memory required for data: 1999231040
I0213 19:37:34.672080  6127 layer_factory.hpp:77] Creating layer mbox_conf
I0213 19:37:34.672082  6127 net.cpp:100] Creating Layer mbox_conf
I0213 19:37:34.672086  6127 net.cpp:434] mbox_conf <- conv4_3_norm_mbox_conf_flat
I0213 19:37:34.672088  6127 net.cpp:434] mbox_conf <- fc7_mbox_conf_flat
I0213 19:37:34.672091  6127 net.cpp:434] mbox_conf <- conv6_2_mbox_conf_flat
I0213 19:37:34.672093  6127 net.cpp:434] mbox_conf <- conv7_2_mbox_conf_flat
I0213 19:37:34.672096  6127 net.cpp:434] mbox_conf <- conv8_2_mbox_conf_flat
I0213 19:37:34.672098  6127 net.cpp:434] mbox_conf <- conv9_2_mbox_conf_flat
I0213 19:37:34.672109  6127 net.cpp:408] mbox_conf -> mbox_conf
I0213 19:37:34.672127  6127 net.cpp:150] Setting up mbox_conf
I0213 19:37:34.672130  6127 net.cpp:157] Top shape: 8 183372 (1466976)
I0213 19:37:34.672132  6127 net.cpp:165] Memory required for data: 2005098944
I0213 19:37:34.672134  6127 layer_factory.hpp:77] Creating layer mbox_priorbox
I0213 19:37:34.672137  6127 net.cpp:100] Creating Layer mbox_priorbox
I0213 19:37:34.672139  6127 net.cpp:434] mbox_priorbox <- conv4_3_norm_mbox_priorbox
I0213 19:37:34.672142  6127 net.cpp:434] mbox_priorbox <- fc7_mbox_priorbox
I0213 19:37:34.672144  6127 net.cpp:434] mbox_priorbox <- conv6_2_mbox_priorbox
I0213 19:37:34.672147  6127 net.cpp:434] mbox_priorbox <- conv7_2_mbox_priorbox
I0213 19:37:34.672149  6127 net.cpp:434] mbox_priorbox <- conv8_2_mbox_priorbox
I0213 19:37:34.672152  6127 net.cpp:434] mbox_priorbox <- conv9_2_mbox_priorbox
I0213 19:37:34.672154  6127 net.cpp:408] mbox_priorbox -> mbox_priorbox
I0213 19:37:34.672173  6127 net.cpp:150] Setting up mbox_priorbox
I0213 19:37:34.672175  6127 net.cpp:157] Top shape: 1 2 34928 (69856)
I0213 19:37:34.672178  6127 net.cpp:165] Memory required for data: 2005378368
I0213 19:37:34.672179  6127 layer_factory.hpp:77] Creating layer mbox_conf_reshape
I0213 19:37:34.672183  6127 net.cpp:100] Creating Layer mbox_conf_reshape
I0213 19:37:34.672185  6127 net.cpp:434] mbox_conf_reshape <- mbox_conf
I0213 19:37:34.672188  6127 net.cpp:408] mbox_conf_reshape -> mbox_conf_reshape
I0213 19:37:34.672212  6127 net.cpp:150] Setting up mbox_conf_reshape
I0213 19:37:34.672215  6127 net.cpp:157] Top shape: 8 8732 21 (1466976)
I0213 19:37:34.672217  6127 net.cpp:165] Memory required for data: 2011246272
I0213 19:37:34.672219  6127 layer_factory.hpp:77] Creating layer mbox_conf_softmax
I0213 19:37:34.672224  6127 net.cpp:100] Creating Layer mbox_conf_softmax
I0213 19:37:34.672225  6127 net.cpp:434] mbox_conf_softmax <- mbox_conf_reshape
I0213 19:37:34.672230  6127 net.cpp:408] mbox_conf_softmax -> mbox_conf_softmax
I0213 19:37:34.672399  6127 net.cpp:150] Setting up mbox_conf_softmax
I0213 19:37:34.672405  6127 net.cpp:157] Top shape: 8 8732 21 (1466976)
I0213 19:37:34.672406  6127 net.cpp:165] Memory required for data: 2017114176
I0213 19:37:34.672408  6127 layer_factory.hpp:77] Creating layer mbox_conf_flatten
I0213 19:37:34.672412  6127 net.cpp:100] Creating Layer mbox_conf_flatten
I0213 19:37:34.672415  6127 net.cpp:434] mbox_conf_flatten <- mbox_conf_softmax
I0213 19:37:34.672418  6127 net.cpp:408] mbox_conf_flatten -> mbox_conf_flatten
I0213 19:37:34.672435  6127 net.cpp:150] Setting up mbox_conf_flatten
I0213 19:37:34.672438  6127 net.cpp:157] Top shape: 8 183372 (1466976)
I0213 19:37:34.672441  6127 net.cpp:165] Memory required for data: 2022982080
I0213 19:37:34.672442  6127 layer_factory.hpp:77] Creating layer detection_out
I0213 19:37:34.672454  6127 net.cpp:100] Creating Layer detection_out
I0213 19:37:34.672456  6127 net.cpp:434] detection_out <- mbox_loc
I0213 19:37:34.672459  6127 net.cpp:434] detection_out <- mbox_conf_flatten
I0213 19:37:34.672461  6127 net.cpp:434] detection_out <- mbox_priorbox
I0213 19:37:34.672466  6127 net.cpp:408] detection_out -> detection_out
I0213 19:37:34.674144  6127 net.cpp:150] Setting up detection_out
I0213 19:37:34.674150  6127 net.cpp:157] Top shape: 1 1 1 7 (7)
I0213 19:37:34.674154  6127 net.cpp:165] Memory required for data: 2022982108
I0213 19:37:34.674155  6127 layer_factory.hpp:77] Creating layer detection_eval
I0213 19:37:34.674160  6127 net.cpp:100] Creating Layer detection_eval
I0213 19:37:34.674163  6127 net.cpp:434] detection_eval <- detection_out
I0213 19:37:34.674166  6127 net.cpp:434] detection_eval <- label
I0213 19:37:34.674170  6127 net.cpp:408] detection_eval -> detection_eval
I0213 19:37:34.675081  6127 net.cpp:150] Setting up detection_eval
I0213 19:37:34.675088  6127 net.cpp:157] Top shape: 1 1 21 5 (105)
I0213 19:37:34.675091  6127 net.cpp:165] Memory required for data: 2022982528
I0213 19:37:34.675093  6127 net.cpp:228] detection_eval does not need backward computation.
I0213 19:37:34.675102  6127 net.cpp:228] detection_out does not need backward computation.
I0213 19:37:34.675106  6127 net.cpp:228] mbox_conf_flatten does not need backward computation.
I0213 19:37:34.675107  6127 net.cpp:228] mbox_conf_softmax does not need backward computation.
…
